va_model/alexa.tflite (tflite, 60808 bytes, 18 tensors)

tfl.pseudo_qconst1 i1 [1, 1088] scale=0.00072676165 zero_point=0
00000000: e2fb e928 fb41 b110 f8d4 e54d 415b c5c6
00000010: 6741 b5e9 3bf9 4270 b00b b5cf ebb1 f86d
00000020: 46ec 2765 3350 77fc 6012 b32e f85e f7ed
00000030: 0b0e 4b76 bbff b3be c6b2 f0c4 e309 5219
00000040: 3bb4 18e0 6f75 17b7 5fc2 ed1d 1b15 2fb6
00000050: f524 1338 25fa 6826 ad47 ccd7 b948 100e
00000060: 3e2e 0816 5643 4f07 abe7 5027 0a2a 1139
00000070: 2a4b ccf0 4142 1a25 54e5 66ac f8fc 7930
00000080: 5cbb e77b f072 34e8 c8bf dd41 5afc e933
00000090: ffcc 697a 44de ac6a d353 d051 6652 d6fc
000000a0: 174c b538 561a b3fa 210a 40ff f603 08ef
000000b0: 2120 d602 3fd8 f0e8 3177 6423 6bd5 eab7
000000c0: 2a1e 0047 c057 1524 e252 b325 ecd4 3c5b
000000d0: 1760 2a48 6260 afbe c9c3 25ae d401 afd2
000000e0: 56ba 2418 1dc2 3769 d949 ece8 62c2 0345
000000f0: cd71 2cfc 42c3 2df0 feaf 17ea 7c34 b3fb
-0.02180285 -0.0036338083 -0.016715517 0.029070467 -0.0036338083 0.04723951 -0.05741417 0.011628186
-0.005814093 -0.031977512 -0.019622564 0.055960648 0.04723951 0.06613531 -0.042878937 -0.042152174
0.07485645 0.04723951 -0.054507125 -0.016715517 0.042878937 -0.0050873314 0.047966268 0.0813973
-0.058140934 0.007994378 -0.054507125 -0.03561132 -0.015261995 -0.05741417 -0.005814093 0.07921702
0.050873317 -0.014535233 0.028343704 0.07340293 0.037064843 0.058140934 0.08648463 -0.0029070466
0.069769114 0.01308171 -0.055960648 0.033431035 -0.005814093 0.068315595 -0.006540855 -0.013808471
0.007994378 0.010174663 0.054507125 0.085757874 -0.050146554 -0.00072676165 -0.055960648 -0.047966268
-0.042152174 -0.056687407 -0.011628186 -0.0436057 -0.021076087 0.006540855 0.059594456 0.018169042
0.042878937 -0.055233885 0.017442279 -0.023256373 0.08067054 0.085031115 0.016715517 -0.0530536
0.069042355 -0.045059223 -0.013808471 0.021076087 0.019622564 0.015261995 0.034157798 -0.053780362
-0.007994378 0.02616342 0.013808471 0.04069865 0.026890181 -0.0043605696 0.07558321 0.027616942
-0.060321216 0.051600076 -0.037791606 -0.029797228 -0.051600076 0.05232684 0.011628186 0.010174663
0.045059223 0.033431035 0.005814093 0.015988756 0.062501505 0.04869303 0.05741417 0.0050873314
-0.061774738 -0.018169042 0.058140934 0.028343704 0.0072676167 0.03052399 0.012354948 0.041425414
0.03052399 0.054507125 -0.037791606 -0.011628186 0.04723951 0.047966268 0.018895803 0.026890181
0.06104798 -0.019622564 0.074129686 -0.06104798 -0.005814093 -0.0029070466 0.08793816 0.034884557
0.06686207 -0.050146554 -0.018169042 0.089391686 -0.011628186 0.08285083 0.037791606 -0.017442279
-0.04069865 -0.04723951 -0.025436658 0.04723951 0.06540855 -0.0029070466 -0.016715517 0.037064843
-0.00072676165 -0.037791606 0.07630997 0.08866492 0.04941979 -0.024709895 -0.06104798 0.07703673
-0.032704275 0.060321216 -0.034884557 0.058867693 0.074129686 0.059594456 -0.03052399 -0.0029070466
0.016715517 0.055233885 -0.054507125 0.04069865 0.062501505 0.018895803 -0.055960648 -0.0043605696
0.023983134 0.0072676167 0.046512745 -0.00072676165 -0.0072676167 0.0021802848 0.005814093 -0.012354948
0.023983134 0.023256373 -0.03052399 0.0014535233 0.045785982 -0.029070467 -0.011628186 -0.017442279
0.03561132 0.08648463 0.07267617 0.025436658 0.0777635 -0.031250753 -0.015988756 -0.0530536
0.03052399 0.02180285 0.0 0.051600076 -0.046512745 0.063228264 0.015261995 0.02616342
-0.02180285 0.059594456 -0.055960648 0.026890181 -0.014535233 -0.031977512 0.0436057 0.06613531
0.016715517 0.069769114 0.03052399 0.05232684 0.07122264 0.069769114 -0.058867693 -0.047966268
-0.03997189 -0.04433246 0.026890181 -0.059594456 -0.031977512 0.00072676165 -0.058867693 -0.033431035
0.062501505 -0.050873317 0.02616342 0.017442279 0.021076087 -0.045059223 0.03997189 0.07630997
-0.028343704 0.0530536 -0.014535233 -0.017442279 0.07122264 -0.045059223 0.0021802848 0.050146554
-0.037064843 0.08212407 0.031977512 -0.0029070466 0.047966268 -0.04433246 0.032704275 -0.011628186
-0.0014535233 -0.058867693 0.016715517 -0.015988756 0.090118445 0.037791606 -0.055960648 -0.0036338083

tfl.pseudo_qconst3 i1 [64, 1, 1, 64]
00000000: dd5f 4c00 4b01 b22d 7d5c d205 c88e ae19
00000010: bfda 5389 62be 2ec5 ebec 4ed6 c481 d121
00000020: 73da 46a3 7c23 1987 299c a592 7817 c7b0
00000030: 2f79 69a2 fc33 4e40 81fe ef4e 4457 b6d5
00000040: e195 4782 d8fd d989 b553 f147 5ebe 2c05
00000050: db3f 7120 1bba b281 5332 a2c9 6f66 9326
00000060: bd7a b960 7905 acad e788 3965 7a3b 170a
00000070: 143a 1a18 4267 8715 be22 e6c4 463d 5819
00000080: c0d0 954d 0749 8bf9 31ce 4f53 f654 6107
00000090: 1fa0 5433 aab2 29a3 922a 10e4 8c8b 094e
000000a0: f563 4f93 7530 fc0c 063b 56dc d32c 2804
000000b0: 87b2 1e2f 74d5 3274 7f58 1a72 b441 fdc1
000000c0: d7f2 ff0b 6b0f 9107 098a 464e ccd1 4ae3
000000d0: 3b7e 584e f9ea 041d b834 0b03 d45b 8bbe
000000e0: d1fe 2e6e e8a7 c972 1c74 5457 ea6a 8140
000000f0: 6356 d78e 5747 15af 3bd4 c457 623e c7dc
-35 95 76 0 75 1 -78 45
125 92 -46 5 -56 -114 -82 25
-65 -38 83 -119 98 -66 46 -59
-21 -20 78 -42 -60 -127 -47 33
115 -38 70 -93 124 35 25 -121
41 -100 -91 -110 120 23 -57 -80
47 121 105 -94 -4 51 78 64
-127 -2 -17 78 68 87 -74 -43
-31 -107 71 -126 -40 -3 -39 -119
-75 83 -15 71 94 -66 44 5
-37 63 113 32 27 -70 -78 -127
83 50 -94 -55 111 102 -109 38
-67 122 -71 96 121 5 -84 -83
-25 -120 57 101 122 59 23 10
20 58 26 24 66 103 -121 21
-66 34 -26 -60 70 61 88 25
-64 -48 -107 77 7 73 -117 -7
49 -50 79 83 -10 84 97 7
31 -96 84 51 -86 -78 41 -93
-110 42 16 -28 -116 -117 9 78
-11 99 79 -109 117 48 -4 12
6 59 86 -36 -45 44 40 4
-121 -78 30 47 116 -43 50 116
127 88 26 114 -76 65 -3 -63
-41 -14 -1 11 107 15 -111 7
9 -118 70 78 -52 -47 74 -29
59 126 88 78 -7 -22 4 29
-72 52 11 3 -44 91 -117 -66
-47 -2 46 110 -24 -89 -55 114
28 116 84 87 -22 106 -127 64
99 86 -41 -114 87 71 21 -81
59 -44 -60 87 98 62 -57 -36

tfl.pseudo_qconst5 i1 [1, 23, 1, 64]
00000000: c8e3 a318 653e 6663 26d8 701c b265 2f27
00000010: 33f5 d7be f634 9741 513f 12b5 bcf4 2c2b
00000020: 0bc9 4944 13f7 19cb bb8c dbe2 be96 1006
00000030: 9beb 5efa f576 b37f 707f ccd9 c464 9916
00000040: 7019 35d3 2e57 6499 6ebb 51ef eb3d 037d
00000050: 69b9 cd11 39dd db7f e21a bffe f9ee fa59
00000060: fa1c d3c0 13fd e4ef 9151 7fb6 29ea aa3c
00000070: 8f25 94fa 34c0 32c1 3e0f 8306 81a8 e9cd
00000080: dc44 3d72 f341 50e6 7fb9 e71d 95f1 9dad
00000090: fc7f 0e36 41e5 0060 10c1 ddac d5f2 5170
000000a0: 9ea1 5f30 183d e281 db34 531b 5123 b485
000000b0: 8c22 4283 9acf 4e13 58c7 4cd0 5039 7fbb
000000c0: 81d8 d624 f394 5774 a665 494e e981 d15c
000000d0: 991e d57f e581 a79e 2301 f281 508b 7b5a
000000e0: 95a3 d5cb 9ae8 f853 f053 2bd6 472c 65e3
000000f0: 605e 4cca 14cb 0a7f 57e0 7136 4323 aca3
-56 -29 -93 24 101 62 102 99
38 -40 112 28 -78 101 47 39
51 -11 -41 -66 -10 52 -105 65
81 63 18 -75 -68 -12 44 43
11 -55 73 68 19 -9 25 -53
-69 -116 -37 -30 -66 -106 16 6
-101 -21 94 -6 -11 118 -77 127
112 127 -52 -39 -60 100 -103 22
112 25 53 -45 46 87 100 -103
110 -69 81 -17 -21 61 3 125
105 -71 -51 17 57 -35 -37 127
-30 26 -65 -2 -7 -18 -6 89
-6 28 -45 -64 19 -3 -28 -17
-111 81 127 -74 41 -22 -86 60
-113 37 -108 -6 52 -64 50 -63
62 15 -125 6 -127 -88 -23 -51
-36 68 61 114 -13 65 80 -26
127 -71 -25 29 -107 -15 -99 -83
-4 127 14 54 65 -27 0 96
16 -63 -35 -84 -43 -14 81 112
-98 -95 95 48 24 61 -30 -127
-37 52 83 27 81 35 -76 -123
-116 34 66 -125 -102 -49 78 19
88 -57 76 -48 80 57 127 -69
-127 -40 -42 36 -13 -108 87 116
-90 101 73 78 -23 -127 -47 92
-103 30 -43 127 -27 -127 -89 -98
35 1 -14 -127 80 -117 123 90
-107 -93 -43 -53 -102 -24 -8 83
-16 83 43 -42 71 44 101 -29
96 94 76 -54 20 -53 10 127
87 -32 113 54 67 35 -84 -93

tfl.pseudo_qconst7 i1 [64, 1, 1, 64]
00000000: bf24 e220 97cf f9a0 70c4 3efa d490 c7f0
00000010: cfa9 0709 c5eb 3e23 78ee 48cd b811 da56
00000020: 785b e8f2 bec3 b708 f695 458d a383 27e1
00000030: e29c 0e64 6cb3 5ed8 69cc 35cb 3365 7f23
00000040: 65c9 b562 05b0 961b 3742 e1a3 2c8b f4ee
00000050: 2f7f 35f7 4cac ffe2 3f8a e75b 6c43 4259
00000060: 6765 5fa2 b0c4 ec3c b4cb be2b f57a cd89
00000070: 7351 0f61 9935 e502 6224 7236 9040 513c
00000080: 541e c7b2 c60a f0b2 8d47 ad07 143b 9177
00000090: d5d0 024e 9ddc 8c18 53e1 7a08 5f37 8b02
000000a0: 8bc7 c23d 70f4 d74b 218e d46d 67f4 d731
000000b0: dc9b 1c81 23d2 48a6 d19c 142d ca69 f28c
000000c0: 38bb 243f da73 69d4 81da f2ab 195e 2856
000000d0: 3dfd 5148 221d 7450 c1fd c267 46fe 5566
000000e0: 1710 d7d3 b767 b92a f759 30a4 67b0 b005
000000f0: 7761 8dae 3fe1 32e9 4d56 86dc 1251 10de
-65 36 -30 32 -105 -49 -7 -96
112 -60 62 -6 -44 -112 -57 -16
-49 -87 7 9 -59 -21 62 35
120 -18 72 -51 -72 17 -38 86
120 91 -24 -14 -66 -61 -73 8
-10 -107 69 -115 -93 -125 39 -31
-30 -100 14 100 108 -77 94 -40
105 -52 53 -53 51 101 127 35
101 -55 -75 98 5 -80 -106 27
55 66 -31 -93 44 -117 -12 -18
47 127 53 -9 76 -84 -1 -30
63 -118 -25 91 108 67 66 89
103 101 95 -94 -80 -60 -20 60
-76 -53 -66 43 -11 122 -51 -119
115 81 15 97 -103 53 -27 2
98 36 114 54 -112 64 81 60
84 30 -57 -78 -58 10 -16 -78
-115 71 -83 7 20 59 -111 119
-43 -48 2 78 -99 -36 -116 24
83 -31 122 8 95 55 -117 2
-117 -57 -62 61 112 -12 -41 75
33 -114 -44 109 103 -12 -41 49
-36 -101 28 -127 35 -46 72 -90
-47 -100 20 45 -54 105 -14 -116
56 -69 36 63 -38 115 105 -44
-127 -38 -14 -85 25 94 40 86
61 -3 81 72 34 29 116 80
-63 -3 -62 103 70 -2 85 102
23 16 -41 -45 -73 103 -71 42
-9 89 48 -92 103 -80 -80 5
119 97 -115 -82 63 -31 50 -23
77 86 -122 -36 18 81 16 -34

tfl.pseudo_qconst9 i1 [1, 15, 1, 32]
00000000: e51f 7c1b b1f7 9d44 9c22 f20f 0b7f 2311
00000010: 7ffd 4104 6a69 a7c2 a88b fd39 816c 4e81
00000020: 16e3 6635 f527 0bbd 7f20 9902 9dbb 2566
00000030: a3fe 5de2 9da5 7f9e d05e 7281 8ac3 9732
00000040: 0db6 0347 a284 7f81 780b c779 a486 d04c
00000050: 701a 2912 3c95 db79 ae97 9341 9f2a 84d6
00000060: 12ab 9845 0a81 9969 ad62 a842 77b6 dcbc
00000070: e538 2e5f bed9 58c7 b481 5af4 ffd4 ddd0
00000080: 042f dab7 81a2 9e0f d559 e287 9978 234c
00000090: e5f6 507f 81f1 b0cc 6517 a133 8f81 1047
000000a0: 08b2 81eb a959 615e f27f 8c08 be57 b1a1
000000b0: be32 1c3d 642c 0a5a 3718 02d0 1151 3e47
000000c0: 8c23 c393 e4ee b05c 4dc8 01a8 6010 bec7
000000d0: f084 8165 2578 c5bf 0f73 95dc f459 d776
000000e0: 1f40 679f ecab 5dd3 b3b4 b215 91fe 81cb
000000f0: 2e77 7260 e0ff 8742 323a 4bac 8637 cb1d
-27 31 124 27 -79 -9 -99 68
-100 34 -14 15 11 127 35 17
127 -3 65 4 106 105 -89 -62
-88 -117 -3 57 -127 108 78 -127
22 -29 102 53 -11 39 11 -67
127 32 -103 2 -99 -69 37 102
-93 -2 93 -30 -99 -91 127 -98
-48 94 114 -127 -118 -61 -105 50
13 -74 3 71 -94 -124 127 -127
120 11 -57 121 -92 -122 -48 76
112 26 41 18 60 -107 -37 121
-82 -105 -109 65 -97 42 -124 -42
18 -85 -104 69 10 -127 -103 105
-83 98 -88 66 119 -74 -36 -68
-27 56 46 95 -66 -39 88 -57
-76 -127 90 -12 -1 -44 -35 -48
4 47 -38 -73 -127 -94 -98 15
-43 89 -30 -121 -103 120 35 76
-27 -10 80 127 -127 -15 -80 -52
101 23 -95 51 -113 -127 16 71
8 -78 -127 -21 -87 89 97 94
-14 127 -116 8 -66 87 -79 -95
-66 50 28 61 100 44 10 90
55 24 2 -48 17 81 62 71
-116 35 -61 -109 -28 -18 -80 92
77 -56 1 -88 96 16 -66 -57
-16 -124 -127 101 37 120 -59 -65
15 115 -107 -36 -12 89 -41 118
31 64 103 -97 -20 -85 93 -45
-77 -76 -78 21 -111 -2 -127 -53
46 119 114 96 -32 -1 -121 66
50 58 75 -84 -122 55 -53 29

tfl.pseudo_qconst11 i1 [1, 9, 1, 32]
00000000: 2844 8106 677f 387f 6168 e88a 9e69 e41d
00000010: 50b3 8139 2cd5 cf81 507f b2c7 0584 f12a
00000020: 643e 7bc4 3cfa ab32 4cdb 7f32 3ee1 c3ac
00000030: 6ee6 6abb ae7f 88f5 4127 7cfb 7775 1f00
00000040: 5b18 6051 1261 251f 376c 947a 8100 89a2
00000050: 81f5 cbc0 a821 818e e213 3590 72b1 d7de
00000060: b6c9 c4fc 35c3 daaa 6a6f f27f 9d45 2fc4
00000070: 13f5 4860 ec82 f673 91d5 0fa5 3da4 997f
00000080: 1074 4283 96c8 a179 ddee acb6 1281 6c6b
00000090: 08c1 bc81 8c25 8e0d ca68 275d 9c1b 8b7e
000000a0: 2149 a487 52a5 bb6c 7f36 171d 8202 9581
000000b0: 8981 6c04 3add ad5e da69 7f8c 7e28 e3e1
000000c0: 81cd 059d 7f28 32db 47a4 9317 c15c 819c
000000d0: ee0d 603e 21df e90f 3268 e07f a1d0 8120
000000e0: 0e7e 2b25 5cbd b64f 1d92 a8e4 6966 21ae
000000f0: 4d0c 8e62 10e5 4c18 81ec f73d 7f70 365c
40 68 -127 6 103 127 56 127
97 104 -24 -118 -98 105 -28 29
80 -77 -127 57 44 -43 -49 -127
80 127 -78 -57 5 -124 -15 42
100 62 123 -60 60 -6 -85 50
76 -37 127 50 62 -31 -61 -84
110 -26 106 -69 -82 127 -120 -11
65 39 124 -5 119 117 31 0
91 24 96 81 18 97 37 31
55 108 -108 122 -127 0 -119 -94
-127 -11 -53 -64 -88 33 -127 -114
-30 19 53 -112 114 -79 -41 -34
-74 -55 -60 -4 53 -61 -38 -86
106 111 -14 127 -99 69 47 -60
19 -11 72 96 -20 -126 -10 115
-111 -43 15 -91 61 -92 -103 127
16 116 66 -125 -106 -56 -95 121
-35 -18 -84 -74 18 -127 108 107
8 -63 -68 -127 -116 37 -114 13
-54 104 39 93 -100 27 -117 126
33 73 -92 -121 82 -91 -69 108
127 54 23 29 -126 2 -107 -127
-119 -127 108 4 58 -35 -83 94
-38 105 127 -116 126 40 -29 -31
-127 -51 5 -99 127 40 50 -37
71 -92 -109 23 -63 92 -127 -100
-18 13 96 62 33 -33 -23 15
50 104 -32 127 -95 -48 -127 32
14 126 43 37 92 -67 -74 79
29 -110 -88 -28 105 102 33 -82
77 12 -114 98 16 -27 76 24
-127 -20 -9 61 127 112 54 92

tfl.pseudo_qconst13 i1 [64, 1, 1, 64]
00000000: b1eb 34dd c99d b6f9 b01d 5189 4f8d 8496
00000010: 7565 29ab 2eb3 fb60 63bd 3a0d fe81 95b2
00000020: 942b 0721 624b c6e7 ef2b b8ad 14c5 47c4
00000030: 42ab e4c2 d3ac 20b7 ee18 c6f7 f233 ffa6
00000040: 2d14 6d8e ba4c da4c b286 0765 5f02 da13
00000050: 055e 78f5 453d 7e46 cd62 6737 7e17 81b5
00000060: ce2e 46af 9858 bee3 4106 22c4 be00 0348
00000070: 9071 3e95 e7cf 3daa d0c8 a13b 9d35 3a3d
00000080: 0f2b d3af 4376 0fee cfcc f791 ff43 fe81
00000090: d105 028d 9efa 152f 2428 521f 3427 40ec
000000a0: 5194 f854 c2d5 5740 a98d a85d d3a5 7da7
000000b0: 3afe 57a3 148c b2f5 ce26 5a57 3958 6562
000000c0: 8858 ade3 b38c dbcf d935 662a aa36 8599
000000d0: 1db0 c68b 3a54 2ee6 d241 8c54 6a81 12af
000000e0: 3579 2b3d bcb2 87ab 9113 c5de d374 e6f9
000000f0: 04ce 668f 6e53 8b67 a7fb 37f5 dfeb 6d8f
-79 -21 52 -35 -55 -99 -74 -7
-80 29 81 -119 79 -115 -124 -106
117 101 41 -85 46 -77 -5 96
99 -67 58 13 -2 -127 -107 -78
-108 43 7 33 98 75 -58 -25
-17 43 -72 -83 20 -59 71 -60
66 -85 -28 -62 -45 -84 32 -73
-18 24 -58 -9 -14 51 -1 -90
45 20 109 -114 -70 76 -38 76
-78 -122 7 101 95 2 -38 19
5 94 120 -11 69 61 126 70
-51 98 103 55 126 23 -127 -75
-50 46 70 -81 -104 88 -66 -29
65 6 34 -60 -66 0 3 72
-112 113 62 -107 -25 -49 61 -86
-48 -56 -95 59 -99 53 58 61
15 43 -45 -81 67 118 15 -18
-49 -52 -9 -111 -1 67 -2 -127
-47 5 2 -115 -98 -6 21 47
36 40 82 31 52 39 64 -20
81 -108 -8 84 -62 -43 87 64
-87 -115 -88 93 -45 -91 125 -89
58 -2 87 -93 20 -116 -78 -11
-50 38 90 87 57 88 101 98
-120 88 -83 -29 -77 -116 -37 -49
-39 53 102 42 -86 54 -123 -103
29 -80 -58 -117 58 84 46 -26
-46 65 -116 84 106 -127 18 -81
53 121 43 61 -68 -78 -121 -85
-111 19 -59 -34 -45 116 -26 -7
4 -50 102 -113 110 83 -117 103
-89 -5 55 -11 -33 -21 109 -113

tfl.pseudo_qconst15 i1 [1, 11, 1, 32]
00000000: 32d9 2670 8131 c3c7 54c8 2587 f704 cd5b
00000010: 6557 1924 5aeb b34a b684 df4d 20e8 f261
00000020: e327 4d23 700d 0c81 7879 ec77 4da2 1cd9
00000030: efed 81dd dc3f f89d 34ae 8617 46ff ee5b
00000040: d49b 7064 c59b cf91 810f f463 d290 421c
00000050: 7fc8 cb06 a470 be50 6b00 c89b f881 f1ee
00000060: 50fb 9ced f949 ad58 dc64 bfaa d65f 0e9d
00000070: ff81 b690 9e4c 257f d63f c57f af58 451e
00000080: 0574 4054 3095 6528 f981 08b3 a6a3 c957
00000090: d2fc 2686 81c2 72d6 b1f5 18c6 6b2c eed7
000000a0: be7f b0fd f127 7f34 d221 dca6 4c7f 2acb
000000b0: a7d0 16c0 4260 57f8 51ec a0d8 0f78 3171
000000c0: 7fae 87f6 1fb6 0b46 1988 64a5 a275 d581
000000d0: 0b0b 7913 f1e2 35ff e945 f71c 7fd8 9b7e
000000e0: 4815 819e bc7f e810 a3d8 1143 1208 7f01
000000f0: 8bf1 a9c4 7e7f 7f19 a281 5997 3a7c a709
50 -39 38 112 -127 49 -61 -57
84 -56 37 -121 -9 4 -51 91
101 87 25 36 90 -21 -77 74
-74 -124 -33 77 32 -24 -14 97
-29 39 77 35 112 13 12 -127
120 121 -20 119 77 -94 28 -39
-17 -19 -127 -35 -36 63 -8 -99
52 -82 -122 23 70 -1 -18 91
-44 -101 112 100 -59 -101 -49 -111
-127 15 -12 99 -46 -112 66 28
127 -56 -53 6 -92 112 -66 80
107 0 -56 -101 -8 -127 -15 -18
80 -5 -100 -19 -7 73 -83 88
-36 100 -65 -86 -42 95 14 -99
-1 -127 -74 -112 -98 76 37 127
-42 63 -59 127 -81 88 69 30
5 116 64 84 48 -107 101 40
-7 -127 8 -77 -90 -93 -55 87
-46 -4 38 -122 -127 -62 114 -42
-79 -11 24 -58 107 44 -18 -41
-66 127 -80 -3 -15 39 127 52
-46 33 -36 -90 76 127 42 -53
-89 -48 22 -64 66 96 87 -8
81 -20 -96 -40 15 120 49 113
127 -82 -121 -10 31 -74 11 70
25 -120 100 -91 -94 117 -43 -127
11 11 121 19 -15 -30 53 -1
-23 69 -9 28 127 -40 -101 126
72 21 -127 -98 -68 127 -24 16
-93 -40 17 67 18 8 127 1
-117 -15 -87 -60 126 127 127 25
-94 -127 89 -105 58 124 -89 9

tfl.pseudo_qconst17 i1 [1, 7, 1, 32]
00000000: cd2c 9409 3390 8123 3102 1da2 8181 1f4b
00000010: d4a6 7fa0 1ba2 dacc 204a 248f f18c 9e1f
00000020: 3494 6266 8185 2ddb 8190 58fc d80e 1f07
00000030: 96bc abae 81fb 91ec 302c 8581 8bbc 747f
00000040: dc81 c9cb da9f a667 f6be 8ac4 a1b2 7f8e
00000050: 6a09 22cf 7653 1664 4767 811e d481 992a
00000060: 8137 8101 ccb1 17b3 15ee 0b81 0118 042c
00000070: 7fa2 5cb7 e4d4 c47f 407f f82b cb46 7561
00000080: 01b6 0083 820b 5681 3a7f 8160 55dd 6e3d
00000090: 2f81 d1c9 92b7 81f2 2875 31c8 b3e9 7f7f
000000a0: 12fe f5d8 6f81 6b46 4490 a598 a1a4 0ffd
000000b0: c0d0 a57f b288 6a8a e00d 2287 f4c7 0056
000000c0: d4cc b07f edde 5722 050a 1d46 6d9f 7781
000000d0: a6ae 5bf2 0f7f 53e6 8178 00fd 7f57 23a5
-51 44 -108 9 51 -112 -127 35
49 2 29 -94 -127 -127 31 75
-44 -90 127 -96 27 -94 -38 -52
32 74 36 -113 -15 -116 -98 31
52 -108 98 102 -127 -123 45 -37
-127 -112 88 -4 -40 14 31 7
-106 -68 -85 -82 -127 -5 -111 -20
48 44 -123 -127 -117 -68 116 127
-36 -127 -55 -53 -38 -97 -90 103
-10 -66 -118 -60 -95 -78 127 -114
106 9 34 -49 118 83 22 100
71 103 -127 30 -44 -127 -103 42
-127 55 -127 1 -52 -79 23 -77
21 -18 11 -127 1 24 4 44
127 -94 92 -73 -28 -44 -60 127
64 127 -8 43 -53 70 117 97
1 -74 0 -125 -126 11 86 -127
58 127 -127 96 85 -35 110 61
47 -127 -47 -55 -110 -73 -127 -14
40 117 49 -56 -77 -23 127 127
18 -2 -11 -40 111 -127 107 70
68 -112 -91 -104 -95 -92 15 -3
-64 -48 -91 127 -78 -120 106 -118
-32 13 34 -121 -12 -57 0 86
-44 -52 -80 127 -19 -34 87 34
5 10 29 70 109 -97 119 -127
-90 -82 91 -14 15 127 83 -26
-127 120 0 -3 127 87 35 -91

tfl.pseudo_qconst19 i1 [64, 1, 1, 32]
00000000: c16f cc7e cb6b 44a0 9c56 0fff 81b1 3053
00000010: 0655 cbde b0c2 eb88 d484 2f14 f39d 9925
00000020: 9c63 1c49 8bb8 e7b0 2810 f6e7 16a9 c42d
00000030: 3ff3 110f 8165 bc7c e618 5794 6309 0a0b
00000040: 0d9c 897d 7faa 9324 d7cc f276 2ac6 0dee
00000050: 3e69 d95f 84e3 40b7 add6 b234 62d9 5681
00000060: 0641 9783 0338 8a29 3222 32b2 c29e 479a
00000070: 65c9 7f9c 3b92 c04d ac70 def9 ecb2 2b0d
00000080: 6212 a94d 8105 6a08 ba95 bc2a 130f b790
00000090: 0707 7a58 40ab db8c 0542 5761 37c1 b394
000000a0: 7f7e ca96 964d 5d4f 5abd beec e2ef 95c1
000000b0: 6c5a 2739 6364 3e95 783e cfd1 0236 4e9a
000000c0: 220d 1c5e e0e2 9d4c 72f4 9d8e 8d12 8139
000000d0: e4e4 9c3d 97cc 0201 fd69 47bd bd12 c67d
000000e0: 1f49 745e febc 7f64 a338 eb08 599c d426
000000f0: ba6d 533b 5f50 2692 0fc5 a43c dd41 7cb3
-63 111 -52 126 -53 107 68 -96
-100 86 15 -1 -127 -79 48 83
6 85 -53 -34 -80 -62 -21 -120
-44 -124 47 20 -13 -99 -103 37
-100 99 28 73 -117 -72 -25 -80
40 16 -10 -25 22 -87 -60 45
63 -13 17 15 -127 101 -68 124
-26 24 87 -108 99 9 10 11
13 -100 -119 125 127 -86 -109 36
-41 -52 -14 118 42 -58 13 -18
62 105 -39 95 -124 -29 64 -73
-83 -42 -78 52 98 -39 86 -127
6 65 -105 -125 3 56 -118 41
50 34 50 -78 -62 -98 71 -102
101 -55 127 -100 59 -110 -64 77
-84 112 -34 -7 -20 -78 43 13
98 18 -87 77 -127 5 106 8
-70 -107 -68 42 19 15 -73 -112
7 7 122 88 64 -85 -37 -116
5 66 87 97 55 -63 -77 -108
127 126 -54 -106 -106 77 93 79
90 -67 -66 -20 -30 -17 -107 -63
108 90 39 57 99 100 62 -107
120 62 -49 -47 2 54 78 -102
34 13 28 94 -32 -30 -99 76
114 -12 -99 -114 -115 18 -127 57
-28 -28 -100 61 -105 -52 2 1
-3 105 71 -67 -67 18 -58 125
31 73 116 94 -2 -68 127 100
-93 56 -21 8 89 -100 -44 38
-70 109 83 59 95 80 38 -110
15 -59 -92 60 -35 65 124 -77

tfl.pseudo_qconst21 i1 [1, 5, 1, 32]
00000000: 7660 8ce7 bda8 9683 c181 a31c 6023 c702
00000010: 7f7f 5071 2960 81ad 7f17 e007 937f 7dd0
00000020: 7f81 0b17 81f5 a681 7f24 9585 d416 1806
00000030: 88f9 8c9d 2ffe 5ba2 7b43 00d4 812f a2a9
00000040: 37bf 2a7f e4ed 4fb2 26e2 fc7f 813a 81fd
00000050: 34e0 8149 1b9a 91e6 1c9b 7f0c 0913 7f81
00000060: b157 81f1 3c7f 61d4 fc94 8487 e49d 114e
00000070: c415 e4a9 ee81 8581 737f e17f b3b9 0f0a
00000080: 06bd 466f fdff 7f90 19be 81fd 0281 ae81
00000090: 906a 157f 7f64 f182 8870 1c40 df2d b30b
118 96 -116 -25 -67 -88 -106 -125
-63 -127 -93 28 96 35 -57 2
127 127 80 113 41 96 -127 -83
127 23 -32 7 -109 127 125 -48
127 -127 11 23 -127 -11 -90 -127
127 36 -107 -123 -44 22 24 6
-120 -7 -116 -99 47 -2 91 -94
123 67 0 -44 -127 47 -94 -87
55 -65 42 127 -28 -19 79 -78
38 -30 -4 127 -127 58 -127 -3
52 -32 -127 73 27 -102 -111 -26
28 -101 127 12 9 19 127 -127
-79 87 -127 -15 60 127 97 -44
-4 -108 -124 -121 -28 -99 17 78
-60 21 -28 -87 -18 -127 -123 -127
115 127 -31 127 -77 -71 15 10
6 -67 70 111 -3 -1 127 -112
25 -66 -127 -3 2 -127 -82 -127
-112 106 21 127 127 100 -15 -126
-120 112 28 64 -33 45 -77 11

tfl.pseudo_qconst23 i1 [32, 5, 1, 40]
00000000: 5f68 48c2 dace 998b 4014 9eb5 53b9 13e5
00000010: be48 4934 23fb 9fbf 9ba2 718c e0bd 1fe4
00000020: d34c 5cfd 5ca6 446c 0e69 04ca 5bc3 968c
00000030: 93ee 8828 442f 95b5 8dc1 81c1 52e9 6200
00000040: c81e 66ea c9d3 2634 3b45 a61a 4a13 9cce
00000050: 1b6b 4816 8a0c 9386 bda4 7360 8699 0490
00000060: 49fe a3e8 1f0f 5e9e 4df1 6b70 48a5 efea
00000070: ac3a d851 3cac 3fcd e1af 290d 595e a5d7
00000080: bbcc 2bb2 38e1 1147 e740 271f 5ad5 f40b
00000090: f96f 290e 67be c857 1b53 57cd 27dc 65e7
000000a0: 04be 283f 4072 bbc6 bc19 1a4f fd62 07a8
000000b0: 4098 1292 9922 2aca 95da 9c1e 8dac b39b
000000c0: 1d94 a492 d2fb 43b4 30d2 353b e658 ac9d
000000d0: e043 39ab 1e33 182c 5790 1b1f 4c6b f28e
000000e0: ba6c 46cd 350d 985d 1af6 aea3 2f1e f0fb
000000f0: 9ff6 2a38 0e8a 266c 5c62 8c36 f337 0346
95 104 72 -62 -38 -50 -103 -117
64 20 -98 -75 83 -71 19 -27
-66 72 73 52 35 -5 -97 -65
-101 -94 113 -116 -32 -67 31 -28
-45 76 92 -3 92 -90 68 108
14 105 4 -54 91 -61 -106 -116
-109 -18 -120 40 68 47 -107 -75
-115 -63 -127 -63 82 -23 98 0
-56 30 102 -22 -55 -45 38 52
59 69 -90 26 74 19 -100 -50
27 107 72 22 -118 12 -109 -122
-67 -92 115 96 -122 -103 4 -112
73 -2 -93 -24 31 15 94 -98
77 -15 107 112 72 -91 -17 -22
-84 58 -40 81 60 -84 63 -51
-31 -81 41 13 89 94 -91 -41
-69 -52 43 -78 56 -31 17 71
-25 64 39 31 90 -43 -12 11
-7 111 41 14 103 -66 -56 87
27 83 87 -51 39 -36 101 -25
4 -66 40 63 64 114 -69 -58
-68 25 26 79 -3 98 7 -88
64 -104 18 -110 -103 34 42 -54
-107 -38 -100 30 -115 -84 -77 -101
29 -108 -92 -110 -46 -5 67 -76
48 -46 53 59 -26 88 -84 -99
-32 67 57 -85 30 51 24 44
87 -112 27 31 76 107 -14 -114
-70 108 70 -51 53 13 -104 93
26 -10 -82 -93 47 30 -16 -5
-97 -10 42 56 14 -118 38 108
92 98 -116 54 -13 55 3 70

tfl.pseudo_qconst24 i1 [1, 22, 1, 64] scale=0.018088154 zero_point=-128
00000000: 8080 8080 8080 8080 8080 8080 8080 8080
00000010: 8080 8080 8080 8080 8080 8080 8080 8080
00000020: 8080 8080 8080 8080 8080 8080 8080 8080
00000030: 8080 8080 8080 8080 8080 8080 8080 8080
00000040: 8080 8080 8080 8080 8080 8080 8080 8080
00000050: 8080 8080 8080 8080 8080 8080 8080 8080
00000060: 8080 8080 8080 8080 8080 8080 8080 8080
00000070: 8080 8080 8080 8080 8080 8080 8080 8080
00000080: 8080 8080 8080 8080 8080 8080 8080 8080
00000090: 8080 8080 8080 8080 8080 8080 8080 8080
000000a0: 8080 8080 8080 8080 8080 8080 8080 8080
000000b0: 8080 8080 8080 8080 8080 8080 8080 8080
000000c0: 8080 8080 8080 8080 8080 8080 8080 8080
000000d0: 8080 8080 8080 8080 8080 8080 8080 8080
000000e0: 8080 8080 8080 8080 8080 8080 8080 8080
000000f0: 8080 8080 8080 8080 8080 8080 8080 8080
0.0 0.0 0.0 0.0 0.0 0.0 0.0 0.0
0.0 0.0 0.0 0.0 0.0 0.0 0.0 0.0
0.0 0.0 0.0 0.0 0.0 0.0 0.0 0.0
0.0 0.0 0.0 0.0 0.0 0.0 0.0 0.0
0.0 0.0 0.0 0.0 0.0 0.0 0.0 0.0
0.0 0.0 0.0 0.0 0.0 0.0 0.0 0.0
0.0 0.0 0.0 0.0 0.0 0.0 0.0 0.0
0.0 0.0 0.0 0.0 0.0 0.0 0.0 0.0
0.0 0.0 0.0 0.0 0.0 0.0 0.0 0.0
0.0 0.0 0.0 0.0 0.0 0.0 0.0 0.0
0.0 0.0 0.0 0.0 0.0 0.0 0.0 0.0
0.0 0.0 0.0 0.0 0.0 0.0 0.0 0.0
0.0 0.0 0.0 0.0 0.0 0.0 0.0 0.0
0.0 0.0 0.0 0.0 0.0 0.0 0.0 0.0
0.0 0.0 0.0 0.0 0.0 0.0 0.0 0.0
0.0 0.0 0.0 0.0 0.0 0.0 0.0 0.0
0.0 0.0 0.0 0.0 0.0 0.0 0.0 0.0
0.0 0.0 0.0 0.0 0.0 0.0 0.0 0.0
0.0 0.0 0.0 0.0 0.0 0.0 0.0 0.0
0.0 0.0 0.0 0.0 0.0 0.0 0.0 0.0
0.0 0.0 0.0 0.0 0.0 0.0 0.0 0.0
0.0 0.0 0.0 0.0 0.0 0.0 0.0 0.0
0.0 0.0 0.0 0.0 0.0 0.0 0.0 0.0
0.0 0.0 0.0 0.0 0.0 0.0 0.0 0.0
0.0 0.0 0.0 0.0 0.0 0.0 0.0 0.0
0.0 0.0 0.0 0.0 0.0 0.0 0.0 0.0
0.0 0.0 0.0 0.0 0.0 0.0 0.0 0.0
0.0 0.0 0.0 0.0 0.0 0.0 0.0 0.0
0.0 0.0 0.0 0.0 0.0 0.0 0.0 0.0
0.0 0.0 0.0 0.0 0.0 0.0 0.0 0.0
0.0 0.0 0.0 0.0 0.0 0.0 0.0 0.0
0.0 0.0 0.0 0.0 0.0 0.0 0.0 0.0

tfl.pseudo_qconst25 i1 [1, 16, 1, 64] scale=0.01802842 zero_point=-128
00000000: 8080 8080 8080 8080 8080 8080 8080 8080
00000010: 8080 8080 8080 8080 8080 8080 8080 8080
00000020: 8080 8080 8080 8080 8080 8080 8080 8080
00000030: 8080 8080 8080 8080 8080 8080 8080 8080
00000040: 8080 8080 8080 8080 8080 8080 8080 8080
00000050: 8080 8080 8080 8080 8080 8080 8080 8080
00000060: 8080 8080 8080 8080 8080 8080 8080 8080
00000070: 8080 8080 8080 8080 8080 8080 8080 8080
00000080: 8080 8080 8080 8080 8080 8080 8080 8080
00000090: 8080 8080 8080 8080 8080 8080 8080 8080
000000a0: 8080 8080 8080 8080 8080 8080 8080 8080
000000b0: 8080 8080 8080 8080 8080 8080 8080 8080
000000c0: 8080 8080 8080 8080 8080 8080 8080 8080
000000d0: 8080 8080 8080 8080 8080 8080 8080 8080
000000e0: 8080 8080 8080 8080 8080 8080 8080 8080
000000f0: 8080 8080 8080 8080 8080 8080 8080 8080
0.0 0.0 0.0 0.0 0.0 0.0 0.0 0.0
0.0 0.0 0.0 0.0 0.0 0.0 0.0 0.0
0.0 0.0 0.0 0.0 0.0 0.0 0.0 0.0
0.0 0.0 0.0 0.0 0.0 0.0 0.0 0.0
0.0 0.0 0.0 0.0 0.0 0.0 0.0 0.0
0.0 0.0 0.0 0.0 0.0 0.0 0.0 0.0
0.0 0.0 0.0 0.0 0.0 0.0 0.0 0.0
0.0 0.0 0.0 0.0 0.0 0.0 0.0 0.0
0.0 0.0 0.0 0.0 0.0 0.0 0.0 0.0
0.0 0.0 0.0 0.0 0.0 0.0 0.0 0.0
0.0 0.0 0.0 0.0 0.0 0.0 0.0 0.0
0.0 0.0 0.0 0.0 0.0 0.0 0.0 0.0
0.0 0.0 0.0 0.0 0.0 0.0 0.0 0.0
0.0 0.0 0.0 0.0 0.0 0.0 0.0 0.0
0.0 0.0 0.0 0.0 0.0 0.0 0.0 0.0
0.0 0.0 0.0 0.0 0.0 0.0 0.0 0.0
0.0 0.0 0.0 0.0 0.0 0.0 0.0 0.0
0.0 0.0 0.0 0.0 0.0 0.0 0.0 0.0
0.0 0.0 0.0 0.0 0.0 0.0 0.0 0.0
0.0 0.0 0.0 0.0 0.0 0.0 0.0 0.0
0.0 0.0 0.0 0.0 0.0 0.0 0.0 0.0
0.0 0.0 0.0 0.0 0.0 0.0 0.0 0.0
0.0 0.0 0.0 0.0 0.0 0.0 0.0 0.0
0.0 0.0 0.0 0.0 0.0 0.0 0.0 0.0
0.0 0.0 0.0 0.0 0.0 0.0 0.0 0.0
0.0 0.0 0.0 0.0 0.0 0.0 0.0 0.0
0.0 0.0 0.0 0.0 0.0 0.0 0.0 0.0
0.0 0.0 0.0 0.0 0.0 0.0 0.0 0.0
0.0 0.0 0.0 0.0 0.0 0.0 0.0 0.0
0.0 0.0 0.0 0.0 0.0 0.0 0.0 0.0
0.0 0.0 0.0 0.0 0.0 0.0 0.0 0.0
0.0 0.0 0.0 0.0 0.0 0.0 0.0 0.0

tfl.pseudo_qconst26 i1 [1, 2, 1, 40] scale=0.101960786 zero_point=-128
00000000: 8080 8080 8080 8080 8080 8080 8080 8080
00000010: 8080 8080 8080 8080 8080 8080 8080 8080
00000020: 8080 8080 8080 8080 8080 8080 8080 8080
00000030: 8080 8080 8080 8080 8080 8080 8080 8080
00000040: 8080 8080 8080 8080 8080 8080 8080 8080
0.0 0.0 0.0 0.0 0.0 0.0 0.0 0.0
0.0 0.0 0.0 0.0 0.0 0.0 0.0 0.0
0.0 0.0 0.0 0.0 0.0 0.0 0.0 0.0
0.0 0.0 0.0 0.0 0.0 0.0 0.0 0.0
0.0 0.0 0.0 0.0 0.0 0.0 0.0 0.0
0.0 0.0 0.0 0.0 0.0 0.0 0.0 0.0
0.0 0.0 0.0 0.0 0.0 0.0 0.0 0.0
0.0 0.0 0.0 0.0 0.0 0.0 0.0 0.0
0.0 0.0 0.0 0.0 0.0 0.0 0.0 0.0
0.0 0.0 0.0 0.0 0.0 0.0 0.0 0.0

tfl.pseudo_qconst27 i1 [1, 4, 1, 32] scale=0.19654255 zero_point=-128
00000000: 8080 8080 8080 8080 8080 8080 8080 8080
00000010: 8080 8080 8080 8080 8080 8080 8080 8080
00000020: 8080 8080 8080 8080 8080 8080 8080 8080
00000030: 8080 8080 8080 8080 8080 8080 8080 8080
00000040: 8080 8080 8080 8080 8080 8080 8080 8080
00000050: 8080 8080 8080 8080 8080 8080 8080 8080
00000060: 8080 8080 8080 8080 8080 8080 8080 8080
00000070: 8080 8080 8080 8080 8080 8080 8080 8080
0.0 0.0 0.0 0.0 0.0 0.0 0.0 0.0
0.0 0.0 0.0 0.0 0.0 0.0 0.0 0.0
0.0 0.0 0.0 0.0 0.0 0.0 0.0 0.0
0.0 0.0 0.0 0.0 0.0 0.0 0.0 0.0
0.0 0.0 0.0 0.0 0.0 0.0 0.0 0.0
0.0 0.0 0.0 0.0 0.0 0.0 0.0 0.0
0.0 0.0 0.0 0.0 0.0 0.0 0.0 0.0
0.0 0.0 0.0 0.0 0.0 0.0 0.0 0.0
0.0 0.0 0.0 0.0 0.0 0.0 0.0 0.0
0.0 0.0 0.0 0.0 0.0 0.0 0.0 0.0
0.0 0.0 0.0 0.0 0.0 0.0 0.0 0.0
0.0 0.0 0.0 0.0 0.0 0.0 0.0 0.0
0.0 0.0 0.0 0.0 0.0 0.0 0.0 0.0
0.0 0.0 0.0 0.0 0.0 0.0 0.0 0.0
0.0 0.0 0.0 0.0 0.0 0.0 0.0 0.0
0.0 0.0 0.0 0.0 0.0 0.0 0.0 0.0

tfl.pseudo_qconst28 i1 [1, 10, 1, 64] scale=0.025383107 zero_point=-128
00000000: 8080 8080 8080 8080 8080 8080 8080 8080
00000010: 8080 8080 8080 8080 8080 8080 8080 8080
00000020: 8080 8080 8080 8080 8080 8080 8080 8080
00000030: 8080 8080 8080 8080 8080 8080 8080 8080
00000040: 8080 8080 8080 8080 8080 8080 8080 8080
00000050: 8080 8080 8080 8080 8080 8080 8080 8080
00000060: 8080 8080 8080 8080 8080 8080 8080 8080
00000070: 8080 8080 8080 8080 8080 8080 8080 8080
00000080: 8080 8080 8080 8080 8080 8080 8080 8080
00000090: 8080 8080 8080 8080 8080 8080 8080 8080
000000a0: 8080 8080 8080 8080 8080 8080 8080 8080
000000b0: 8080 8080 8080 8080 8080 8080 8080 8080
000000c0: 8080 8080 8080 8080 8080 8080 8080 8080
000000d0: 8080 8080 8080 8080 8080 8080 8080 8080
000000e0: 8080 8080 8080 8080 8080 8080 8080 8080
000000f0: 8080 8080 8080 8080 8080 8080 8080 8080
0.0 0.0 0.0 0.0 0.0 0.0 0.0 0.0
0.0 0.0 0.0 0.0 0.0 0.0 0.0 0.0
0.0 0.0 0.0 0.0 0.0 0.0 0.0 0.0
0.0 0.0 0.0 0.0 0.0 0.0 0.0 0.0
0.0 0.0 0.0 0.0 0.0 0.0 0.0 0.0
0.0 0.0 0.0 0.0 0.0 0.0 0.0 0.0
0.0 0.0 0.0 0.0 0.0 0.0 0.0 0.0
0.0 0.0 0.0 0.0 0.0 0.0 0.0 0.0
0.0 0.0 0.0 0.0 0.0 0.0 0.0 0.0
0.0 0.0 0.0 0.0 0.0 0.0 0.0 0.0
0.0 0.0 0.0 0.0 0.0 0.0 0.0 0.0
0.0 0.0 0.0 0.0 0.0 0.0 0.0 0.0
0.0 0.0 0.0 0.0 0.0 0.0 0.0 0.0
0.0 0.0 0.0 0.0 0.0 0.0 0.0 0.0
0.0 0.0 0.0 0.0 0.0 0.0 0.0 0.0
0.0 0.0 0.0 0.0 0.0 0.0 0.0 0.0
0.0 0.0 0.0 0.0 0.0 0.0 0.0 0.0
0.0 0.0 0.0 0.0 0.0 0.0 0.0 0.0
0.0 0.0 0.0 0.0 0.0 0.0 0.0 0.0
0.0 0.0 0.0 0.0 0.0 0.0 0.0 0.0
0.0 0.0 0.0 0.0 0.0 0.0 0.0 0.0
0.0 0.0 0.0 0.0 0.0 0.0 0.0 0.0
0.0 0.0 0.0 0.0 0.0 0.0 0.0 0.0
0.0 0.0 0.0 0.0 0.0 0.0 0.0 0.0
0.0 0.0 0.0 0.0 0.0 0.0 0.0 0.0
0.0 0.0 0.0 0.0 0.0 0.0 0.0 0.0
0.0 0.0 0.0 0.0 0.0 0.0 0.0 0.0
0.0 0.0 0.0 0.0 0.0 0.0 0.0 0.0
0.0 0.0 0.0 0.0 0.0 0.0 0.0 0.0
0.0 0.0 0.0 0.0 0.0 0.0 0.0 0.0
0.0 0.0 0.0 0.0 0.0 0.0 0.0 0.0
0.0 0.0 0.0 0.0 0.0 0.0 0.0 0.0

tfl.pseudo_qconst29 i1 [1, 14, 1, 64] scale=0.020217534 zero_point=-128
00000000: 8080 8080 8080 8080 8080 8080 8080 8080
00000010: 8080 8080 8080 8080 8080 8080 8080 8080
00000020: 8080 8080 8080 8080 8080 8080 8080 8080
00000030: 8080 8080 8080 8080 8080 8080 8080 8080
00000040: 8080 8080 8080 8080 8080 8080 8080 8080
00000050: 8080 8080 8080 8080 8080 8080 8080 8080
00000060: 8080 8080 8080 8080 8080 8080 8080 8080
00000070: 8080 8080 8080 8080 8080 8080 8080 8080
00000080: 8080 8080 8080 8080 8080 8080 8080 8080
00000090: 8080 8080 8080 8080 8080 8080 8080 8080
000000a0: 8080 8080 8080 8080 8080 8080 8080 8080
000000b0: 8080 8080 8080 8080 8080 8080 8080 8080
000000c0: 8080 8080 8080 8080 8080 8080 8080 8080
000000d0: 8080 8080 8080 8080 8080 8080 8080 8080
000000e0: 8080 8080 8080 8080 8080 8080 8080 8080
000000f0: 8080 8080 8080 8080 8080 8080 8080 8080
0.0 0.0 0.0 0.0 0.0 0.0 0.0 0.0
0.0 0.0 0.0 0.0 0.0 0.0 0.0 0.0
0.0 0.0 0.0 0.0 0.0 0.0 0.0 0.0
0.0 0.0 0.0 0.0 0.0 0.0 0.0 0.0
0.0 0.0 0.0 0.0 0.0 0.0 0.0 0.0
0.0 0.0 0.0 0.0 0.0 0.0 0.0 0.0
0.0 0.0 0.0 0.0 0.0 0.0 0.0 0.0
0.0 0.0 0.0 0.0 0.0 0.0 0.0 0.0
0.0 0.0 0.0 0.0 0.0 0.0 0.0 0.0
0.0 0.0 0.0 0.0 0.0 0.0 0.0 0.0
0.0 0.0 0.0 0.0 0.0 0.0 0.0 0.0
0.0 0.0 0.0 0.0 0.0 0.0 0.0 0.0
0.0 0.0 0.0 0.0 0.0 0.0 0.0 0.0
0.0 0.0 0.0 0.0 0.0 0.0 0.0 0.0
0.0 0.0 0.0 0.0 0.0 0.0 0.0 0.0
0.0 0.0 0.0 0.0 0.0 0.0 0.0 0.0
0.0 0.0 0.0 0.0 0.0 0.0 0.0 0.0
0.0 0.0 0.0 0.0 0.0 0.0 0.0 0.0
0.0 0.0 0.0 0.0 0.0 0.0 0.0 0.0
0.0 0.0 0.0 0.0 0.0 0.0 0.0 0.0
0.0 0.0 0.0 0.0 0.0 0.0 0.0 0.0
0.0 0.0 0.0 0.0 0.0 0.0 0.0 0.0
0.0 0.0 0.0 0.0 0.0 0.0 0.0 0.0
0.0 0.0 0.0 0.0 0.0 0.0 0.0 0.0
0.0 0.0 0.0 0.0 0.0 0.0 0.0 0.0
0.0 0.0 0.0 0.0 0.0 0.0 0.0 0.0
0.0 0.0 0.0 0.0 0.0 0.0 0.0 0.0
0.0 0.0 0.0 0.0 0.0 0.0 0.0 0.0
0.0 0.0 0.0 0.0 0.0 0.0 0.0 0.0
0.0 0.0 0.0 0.0 0.0 0.0 0.0 0.0
0.0 0.0 0.0 0.0 0.0 0.0 0.0 0.0
0.0 0.0 0.0 0.0 0.0 0.0 0.0 0.0
