va_model/hey_google.tflite (tflite, 60808 bytes, 18 tensors)

tfl.pseudo_qconst1 i1 [1, 1088] scale=0.001058891 zero_point=0
-0.0074122366 0.0031766728 -0.0116478 0.039178964 0.0105889095 0.061415676 -0.05506233 0.028590055
-0.0031766728 -0.024354491 -0.016942255 0.08047571 0.058239 0.070945695 -0.030707838 -0.040237855
0.0815346 0.061415676 -0.04765009 -0.0063533457 0.05506233 -0.0031766728 0.049767874 0.10800688
-0.05612122 0.008471128 -0.051885657 -0.03388451 -0.012706691 -0.05400344 -0.0052944547 0.09424129
0.084711276 -0.012706691 0.040237855 0.08682906 0.05400344 0.08682906 0.097417966 0.018001147
0.07835793 0.030707838 -0.05506233 0.05506233 0.0031766728 0.07941682 -0.001058891 -0.012706691
0.0105889095 0.040237855 0.070945695 0.08894684 -0.027531166 0.0 -0.050826766 -0.0465912
-0.040237855 -0.0465912 0.0031766728 -0.041296747 0.002117782 0.018001147 0.06671013 0.020118928
0.058239 -0.04765009 0.021177819 -0.012706691 0.097417966 0.097417966 0.019060038 -0.037061185
0.07200459 -0.038120076 -0.0116478 0.04341453 0.031766728 0.020118928 0.045532312 -0.05294455
-0.001058891 0.040237855 0.021177819 0.05294455 0.037061185 -0.002117782 0.077299036 0.050826766
-0.059297893 0.05294455 -0.036002293 -0.027531166 -0.048708983 0.05506233 0.012706691 0.02223671
0.06882791 0.036002293 0.014824473 0.030707838 0.07835793 0.07200459 0.06776902 0.02223671
-0.05400344 -0.002117782 0.059297893 0.050826766 0.013765583 0.042355638 0.018001147 0.04341453
0.03282562 0.0815346 -0.0232956 -0.008471128 0.06776902 0.048708983 0.024354491 0.028590055
0.063533455 -0.008471128 0.08682906 -0.058239 0.012706691 0.0074122366 0.09424129 0.037061185
0.07835793 -0.042355638 -0.012706691 0.09953575 0.0 0.09530018 0.040237855 -0.002117782
-0.037061185 -0.041296747 -0.02223671 0.06565124 0.07624015 0.004235564 -0.0063533457 0.039178964
0.0052944547 -0.024354491 0.083652385 0.09953575 0.060356785 -0.02223671 -0.058239 0.10165353
-0.030707838 0.061415676 -0.031766728 0.061415676 0.077299036 0.063533455 -0.029648947 0.008471128
0.042355638 0.058239 -0.04447342 0.05506233 0.077299036 0.040237855 -0.0465912 0.0105889095
0.031766728 0.021177819 0.04765009 0.015883364 -0.001058891 0.013765583 0.0105889095 -0.0105889095
0.027531166 0.05294455 -0.018001147 0.0052944547 0.063533455 -0.028590055 -0.0063533457 -0.015883364
0.038120076 0.10059464 0.08577017 0.029648947 0.092123516 -0.020118928 -0.0116478 -0.050826766
0.041296747 0.029648947 0.0052944547 0.062474567 -0.03388451 0.07412237 0.018001147 0.040237855
-0.019060038 0.06459235 -0.051885657 0.04341453 -0.004235564 -0.026472274 0.05506233 0.06776902
0.0232956 0.084711276 0.037061185 0.062474567 0.08259349 0.07200459 -0.05612122 -0.030707838
-0.039178964 -0.042355638 0.031766728 -0.05612122 -0.028590055 0.004235564 -0.058239 -0.02223671
0.08047571 -0.048708983 0.0349434 0.03282562 0.03388451 -0.027531166 0.049767874 0.091064624
-0.020118928 0.06776902 -0.012706691 0.002117782 0.077299036 -0.03282562 0.0052944547 0.051885657
-0.03388451 0.11436022 0.04341453 0.001058891 0.061415676 -0.04341453 0.039178964 -0.009530019
0.001058891 -0.04447342 0.028590055 -0.0105889095 0.104830205 0.04765009 -0.051885657 -0.001058891
00000000: f903 f525 0a3a cc1b fde9 f04c 3743 e3da
00000010: 4d3a d3fa 34fd 2f66 cb08 cfe0 f4cd fb59
00000020: 50f4 2652 3352 5c11 4a1d cc34 034b fff4
00000030: 0a26 4354 e600 d0d4 dad4 03d9 0211 3f13
00000040: 37d3 14f4 5c5c 12dd 44dc f529 1e13 2bce
00000050: ff26 1432 23fe 4930 c832 dee6 d234 0c15
00000060: 4122 0e1d 4a44 4015 cdfe 3830 0d28 1129
00000070: 1f4d eaf8 402e 171b 3cf8 52c9 0c07 5923
00000080: 4ad8 f45e 005a 26fe ddd9 eb3e 4804 fa25
00000090: 05e9 4f5e 39eb c960 e33a e23a 493c e408
000000a0: 2837 d634 4926 d40a 1e14 2d0f ff0d 0af6
000000b0: 1a32 ef05 3ce5 faf1 245f 511c 57ed f5d0
000000c0: 271c 053b e046 1126 ee3d cf29 fce7 3440
000000d0: 1650 233b 4e44 cbe3 dbd8 1ecb e504 c9eb
000000e0: 4cd2 211f 20e6 2f56 ed40 f402 49e1 0531
000000f0: e06c 2901 3ad7 25f7 01d6 1bf6 632d cfff

tfl.pseudo_qconst3 i1 [64, 1, 1, 64]
-34 90 74 -7 78 12 -78 41
121 91 -43 4 -57 -115 -80 22
-67 -33 80 -114 98 -60 43 -51
-22 -17 73 -39 -55 -125 -39 32
113 -36 69 -87 118 28 24 -115
44 -89 -85 -104 115 25 -55 -77
43 122 103 -86 14 49 75 60
-127 6 -17 72 64 85 -79 -41
-27 -93 65 -117 -40 -6 -29 -108
-69 73 -14 65 83 -59 41 5
-33 55 93 27 18 -64 -72 -127
83 44 -86 -53 97 103 -106 34
-62 111 -66 78 112 11 -79 -76
-26 -113 47 90 117 50 22 8
19 49 17 27 60 94 -106 17
-56 27 -25 -55 63 57 87 22
-54 -43 -94 46 0 65 -103 -8
37 -44 70 70 -18 79 88 7
27 -88 68 31 -79 -59 39 -96
-104 28 15 -25 -104 -127 21 73
-15 79 72 -100 109 46 -4 16
0 49 70 -40 -43 35 36 8
-111 -73 23 86 103 -36 64 112
120 79 21 107 -71 61 2 -69
-42 -17 -1 11 107 15 -110 6
9 -119 71 79 -51 -48 75 -30
59 126 88 79 -3 -22 5 32
-76 51 7 3 -44 90 -112 -67
-47 -4 48 111 -27 -90 -54 115
28 116 89 87 -25 106 -127 68
98 88 -40 -115 88 70 21 -80
59 -42 -59 93 98 58 -64 -36
00000000: de5a 4af9 4e0c b229 795b d504 c78d b016
00000010: bddf 508e 62c4 2bcd eaef 49d9 c983 d920
00000020: 71dc 45a9 761c 188d 2ca7 ab98 7319 c9b3
00000030: 2b7a 67aa 0e31 4b3c 8106 ef48 4055 b1d7
00000040: e5a3 418b d8fa e394 bb49 f241 53c5 2905
00000050: df37 5d1b 12c0 b881 532c aacb 6167 9622
00000060: c26f be4e 700b b1b4 e68f 2f5a 7532 1608
00000070: 1331 111b 3c5e 9611 c81b e7c9 3f39 5716
00000080: cad5 a22e 0041 99f8 25d4 4646 ee4f 5807
00000090: 1ba8 441f b1c5 27a0 981c 0fe7 9881 1549
000000a0: f14f 489c 6d2e fc10 0031 46d8 d523 2408
000000b0: 91b7 1756 67dc 4070 784f 156b b93d 02bb
000000c0: d6ef ff0b 6b0f 9206 0989 474f cdd0 4be2
000000d0: 3b7e 584f fdea 0520 b433 0703 d45a 90bd
000000e0: d1fc 306f e5a6 ca73 1c74 5957 e76a 8144
000000f0: 6258 d88d 5846 15b0 3bd6 c55d 623a c0dc

tfl.pseudo_qconst5 i1 [1, 23, 1, 64]
-54 -25 -65 43 100 57 70 103
47 -29 113 37 -73 84 46 43
33 -7 -25 -54 -8 60 -106 61
64 38 20 -74 -64 -22 62 43
8 -79 67 74 14 -14 21 -41
-61 -120 -41 -30 -73 -91 6 16
-107 -12 84 -10 -35 116 -68 127
98 107 -53 -31 -63 92 -82 1
112 14 56 -13 46 75 68 -99
103 -55 81 -7 -16 52 0 127
87 -62 -30 23 52 -32 -45 119
-35 22 -69 -12 -4 -47 6 80
-8 3 -47 -77 16 -6 -32 -12
-93 74 127 -68 37 -15 -98 74
-113 69 -101 -19 37 -67 38 -45
53 4 -120 12 -127 -90 -22 -51
-34 58 58 118 -9 61 52 -21
127 -47 -23 38 -104 -32 -102 -80
-4 127 16 55 58 -21 -5 89
4 -61 -37 -90 -36 -39 93 101
-100 -113 87 47 23 51 -33 -127
-29 45 77 14 76 39 -92 -109
-126 50 57 -118 -101 -50 46 20
80 -63 65 -36 76 51 93 -66
-121 -43 -42 58 -10 -105 62 111
-61 100 75 84 -20 -127 -56 92
-85 29 -31 124 -25 -125 -93 -105
29 -1 -17 -127 87 -101 127 80
-108 -97 -47 -71 -90 -28 -14 88
-13 78 41 -42 55 52 102 -5
107 122 68 -63 12 -54 -5 104
77 -41 99 54 62 33 -72 -82
00000000: cae7 bf2b 6439 4667 2fe3 7125 b754 2e2b
00000010: 21f9 e7ca f83c 963d 4026 14b6 c0ea 3e2b
00000020: 08b1 434a 0ef2 15d7 c388 d7e2 b7a5 0610
00000030: 95f4 54f6 dd74 bc7f 626b cbe1 c15c ae01
00000040: 700e 38f3 2e4b 449d 67c9 51f9 f034 007f
00000050: 57c2 e217 34e0 d377 dd16 bbf4 fcd1 0650
00000060: f803 d1b3 10fa e0f4 a34a 7fbc 25f1 9e4a
00000070: 8f45 9bed 25bd 26d3 3504 880c 81a6 eacd
00000080: de3a 3a76 f73d 34eb 7fd1 e926 98e0 9ab0
00000090: fc7f 1037 3aeb fb59 04c3 dba6 dcd9 5d65
000000a0: 9c8f 572f 1733 df81 e32d 4d0e 4c27 a493
000000b0: 8232 398a 9bce 2e14 50c1 41dc 4c33 5dbe
000000c0: 87d5 d63a f697 3e6f c364 4b54 ec81 c85c
000000d0: ab1d e17c e783 a397 1dff ef81 579b 7f50
000000e0: 949f d1b9 a6e4 f258 f34e 29d6 3734 66fb
000000f0: 6b7a 44c1 0cca fb68 4dd7 6336 3e21 b8ae

tfl.pseudo_qconst7 i1 [64, 1, 1, 64]
-69 37 -31 28 -105 -48 -6 -96
111 -55 68 -2 -45 -111 -59 -17
-50 -89 8 9 -61 -22 63 32
123 -16 75 -53 -71 17 -37 87
119 90 -26 -19 -67 -66 -72 7
-9 -107 69 -115 -94 -127 39 -32
-31 -102 16 108 108 -77 96 -39
107 -51 53 -53 50 101 122 35
105 -54 -75 97 6 -81 -104 27
52 68 -31 -92 43 -117 -13 -17
49 127 52 -8 73 -84 0 -31
63 -118 -25 91 108 68 68 89
105 101 95 -95 -81 -57 -20 61
-75 -53 -66 42 -11 122 -52 -118
115 81 13 99 -103 53 -28 2
99 36 115 53 -111 64 80 60
79 27 -55 -71 -59 10 -18 -73
-103 67 -78 6 20 58 -104 111
-41 -45 4 76 -93 -33 -110 22
77 -31 114 9 89 53 -113 0
-110 -54 -60 67 107 -10 -38 70
28 -108 -43 104 97 -11 -38 48
-33 -94 29 -127 33 -45 68 -85
-43 -95 16 44 -51 98 -13 -108
45 -68 34 65 -38 117 107 -44
-127 -36 -13 -79 29 91 49 94
60 4 80 68 30 29 117 64
-64 -12 -61 99 68 0 89 106
25 16 -40 -33 -70 106 -73 46
-9 87 40 -88 104 -81 -75 8
122 97 -112 -96 60 -42 54 -21
78 85 -127 -34 18 79 21 -33
00000000: bb25 e11c 97d0 faa0 6fc9 44fe d391 c5ef
00000010: cea7 0809 c3ea 3f20 7bf0 4bcb b911 db57
00000020: 775a e6ed bdbe b807 f795 458d a281 27e0
00000030: e19a 106c 6cb3 60d9 6bcd 35cb 3265 7a23
00000040: 69ca b561 06af 981b 3444 e1a4 2b8b f3ef
00000050: 317f 34f8 49ac 00e1 3f8a e75b 6c44 4459
00000060: 6965 5fa1 afc7 ec3d b5cb be2a f57a cc8a
00000070: 7351 0d63 9935 e402 6324 7335 9140 503c
00000080: 4f1b c9b9 c50a eeb7 9943 b206 143a 986f
00000090: d7d3 044c a3df 9216 4de1 7209 5935 8f00
000000a0: 92ca c443 6bf6 da46 1c94 d568 61f5 da30
000000b0: dfa2 1d81 21d3 44ab d5a1 102c cd62 f394
000000c0: 2dbc 2241 da75 6bd4 81dc f3b1 1d5b 315e
000000d0: 3c04 5044 1e1d 7540 c0f4 c363 4400 596a
000000e0: 1910 d8df ba6a b72e f757 28a8 68af b508
000000f0: 7a61 90a0 3cd6 36eb 4e55 81de 124f 15df

tfl.pseudo_qconst9 i1 [1, 15, 1, 32]
-27 30 127 23 -82 -8 -97 67
-91 30 -15 8 19 127 31 11
112 -2 67 12 103 98 -83 -55
-82 -113 -6 55 -125 107 79 -127
21 -28 103 44 -11 39 12 -68
127 28 -108 -5 -99 -63 33 96
-106 0 90 -6 -99 -88 127 -87
-40 94 108 -127 -119 -65 -110 53
13 -72 9 62 -93 -122 127 -127
118 11 -63 126 -92 -114 -50 65
112 26 39 36 51 -102 -26 110
-78 -104 -116 59 -94 34 -127 -38
17 -82 -95 60 13 -127 -100 107
-78 95 -99 71 121 -69 -41 -72
-47 55 43 107 -68 -35 91 -54
-70 -127 86 -14 3 -44 -35 -46
4 48 -31 -63 -127 -102 -93 17
-43 87 -41 -122 -105 118 29 67
-36 -8 78 127 -127 -13 -74 -52
103 15 -95 45 -115 -127 17 69
8 -72 -120 -14 -87 75 97 97
-26 127 -124 9 -70 89 -80 -98
-76 52 27 75 97 44 7 78
52 20 5 -49 18 84 66 68
-112 34 -56 -95 -28 -24 -78 95
68 -52 -13 -89 96 21 -70 -58
-30 -117 -127 98 35 119 -62 -67
12 111 -97 -35 -11 92 -36 117
33 64 102 -86 -21 -88 92 -44
-77 -73 -87 27 -110 -1 -127 -55
30 117 115 105 -29 0 -126 54
48 55 79 -82 -127 59 -48 26
00000000: e51e 7f17 aef8 9f43 a51e f108 137f 1f0b
00000010: 70fe 430c 6762 adc9 ae8f fa37 836b 4f81
00000020: 15e4 672c f527 0cbc 7f1c 94fb 9dc1 2160
00000030: 9600 5afa 9da8 7fa9 d85e 6c81 89bf 9235
00000040: 0db8 093e a386 7f81 760b c17e a48e ce41
00000050: 701a 2724 339a e66e b298 8c3b a222 81da
00000060: 11ae a13c 0d81 9c6b b25f 9d47 79bb d7b8
00000070: d137 2b6b bcdd 5bca ba81 56f2 03d4 ddd2
00000080: 0430 e1c1 819a a311 d557 d786 9776 1d43
00000090: dcf8 4e7f 81f3 b6cc 670f a12d 8d81 1145
000000a0: 08b8 88f2 a94b 6161 e67f 8409 ba59 b09e
000000b0: b434 1b4b 612c 074e 3414 05cf 1254 4244
000000c0: 9022 c8a1 e4e8 b25f 44cc f3a7 6015 bac6
000000d0: e28b 8162 2377 c2bd 0c6f 9fdd f55c dc75
000000e0: 2140 66aa eba8 5cd4 b3b7 a91b 92ff 81c9
000000f0: 1e75 7369 e300 8236 3037 4fae 813b d01a

tfl.pseudo_qconst11 i1 [1, 9, 1, 32]
40 64 -127 2 99 127 54 127
96 92 -27 -107 -108 97 -31 14
71 -85 -127 57 37 -42 -49 -127
71 127 -80 -52 5 -127 -19 43
99 59 112 -61 59 -8 -83 49
75 -42 127 58 64 -32 -61 -101
97 -31 81 -67 -82 125 -120 -9
61 38 120 -4 115 115 24 -3
90 24 70 77 20 97 35 33
54 93 -115 123 -127 0 -124 -96
-127 -14 -58 -64 -86 34 -127 -114
-35 19 49 -113 111 -80 -49 -37
-74 -42 -63 -5 53 -53 -38 -84
104 99 -17 127 -94 69 53 -62
13 -13 67 95 -21 -127 -11 116
-114 -41 12 -93 61 -94 -105 125
16 118 58 -122 -95 -53 -93 121
-34 -24 -88 -70 24 -127 119 102
2 -66 -70 -127 -108 41 -115 16
-57 106 36 94 -95 20 -119 127
32 77 -93 -118 88 -85 -69 107
127 38 22 28 -124 -2 -99 -127
-115 -127 105 4 56 -33 -84 95
-46 107 127 -121 125 33 -36 -32
-127 -42 -4 -98 127 50 47 -36
75 -91 -116 23 -61 85 -127 -101
-20 13 95 60 35 -25 -26 12
44 107 -23 127 -89 -59 -127 31
12 126 41 34 95 -60 -74 76
39 -106 -93 -26 110 96 47 -84
70 12 -114 94 19 -20 66 18
-127 -18 -1 61 127 106 45 92
00000000: 2840 8102 637f 367f 605c e595 9461 e10e
00000010: 47ab 8139 25d6 cf81 477f b0cc 0581 ed2b
00000020: 633b 70c3 3bf8 ad31 4bd6 7f3a 40e0 c39b
00000030: 61e1 51bd ae7d 88f7 3d26 78fc 7373 18fd
00000040: 5a18 464d 1461 2321 365d 8d7b 8100 84a0
00000050: 81f2 c6c0 aa22 818e dd13 318f 6fb0 cfdb
00000060: b6d6 c1fb 35cb daac 6863 ef7f a245 35c2
00000070: 0df3 435f eb81 f574 8ed7 0ca3 3da2 977d
00000080: 1076 3a86 a1cb a379 dee8 a8ba 1881 7766
00000090: 02be ba81 9429 8d10 c76a 245e a114 897f
000000a0: 204d a38a 58ab bb6b 7f26 161c 84fe 9d81
000000b0: 8d81 6904 38df ac5f d26b 7f87 7d21 dce0
000000c0: 81d6 fc9e 7f32 2fdc 4ba5 8c17 c355 819b
000000d0: ec0d 5f3c 23e7 e60c 2c6b e97f a7c5 811f
000000e0: 0c7e 2922 5fc4 b64c 2796 a3e6 6e60 2fac
000000f0: 460c 8e5e 13ec 4212 81ee ff3d 7f6a 2d5c

tfl.pseudo_qconst13 i1 [64, 1, 1, 64]
-79 -21 54 -33 -56 -100 -75 -8
-80 29 82 -122 76 -115 -123 -106
115 102 41 -88 50 -77 -5 96
102 -66 59 11 -1 -127 -107 -77
-108 42 8 33 98 76 -59 -25
-15 43 -72 -81 20 -63 71 -62
68 -82 -29 -62 -46 -85 28 -76
-16 26 -58 -9 -12 50 -2 -88
44 18 107 -110 -67 71 -47 77
-76 -119 9 110 92 6 -43 29
5 99 115 -11 64 57 122 66
-46 104 99 54 127 20 -121 -68
-41 49 67 -83 -102 82 -57 -27
55 1 26 -51 -57 -1 4 67
-112 108 68 -106 -30 -47 59 -83
-47 -56 -87 54 -99 50 55 55
14 41 -46 -81 70 118 15 -17
-47 -51 -9 -111 -1 65 1 -127
-46 5 2 -116 -98 -4 18 46
36 41 84 32 48 42 64 -22
81 -107 -9 84 -62 -42 84 64
-86 -113 -87 92 -44 -90 123 -85
59 -3 88 -88 19 -116 -76 -10
-50 37 91 85 56 92 102 98
-115 91 -76 -29 -70 -112 -41 -48
-36 53 102 53 -83 58 -127 -96
28 -64 -59 -113 58 84 47 -25
-46 76 -108 79 108 -123 19 -81
52 117 45 44 -65 -82 -119 -82
-108 17 -61 -18 -40 110 -24 -3
5 -47 105 -109 105 79 -117 99
-86 -5 52 -11 -36 -23 109 -115
00000000: b1eb 36df c89c b5f8 b01d 5286 4c8d 8596
00000010: 7366 29a8 32b3 fb60 66be 3b0b ff81 95b3
00000020: 942a 0821 624c c5e7 f12b b8af 14c1 47c2
00000030: 44ae e3c2 d2ab 1cb4 f01a c6f7 f432 fea8
00000040: 2c12 6b92 bd47 d14d b489 096e 5c06 d51d
00000050: 0563 73f5 4039 7a42 d268 6336 7f14 87bc
00000060: d731 43ad 9a52 c7e5 3701 1acd c7ff 0443
00000070: 906c 4496 e2d1 3bad d1c8 a936 9d32 3737
00000080: 0e29 d2af 4676 0fef d1cd f791 ff41 0181
00000090: d205 028c 9efc 122e 2429 5420 302a 40ea
000000a0: 5195 f754 c2d6 5440 aa8f a95c d4a6 7bab
000000b0: 3bfd 58a8 138c b4f6 ce25 5b55 385c 6662
000000c0: 8d5b b4e3 ba90 d7d0 dc35 6635 ad3a 81a0
000000d0: 1cc0 c58f 3a54 2fe7 d24c 944f 6c85 13af
000000e0: 3475 2d2c bfae 89ae 9411 c3ee d86e e8fd
000000f0: 05d1 6993 694f 8b63 aafb 34f5 dce9 6d8d

tfl.pseudo_qconst15 i1 [1, 11, 1, 32]
55 -46 40 111 -127 50 -59 -57
92 -58 34 -127 -2 3 -56 96
97 82 27 26 83 -17 -69 72
-74 -116 -36 75 23 -21 -11 103
-20 33 79 36 122 14 18 -127
127 114 -21 114 80 -87 28 -34
-20 -20 -126 -35 -36 66 0 -107
53 -75 -122 21 66 -1 -13 93
-33 -103 114 98 -62 -102 -35 -111
-120 14 -13 93 -40 -106 70 28
127 -58 -59 6 -86 115 -60 79
108 3 -56 -104 -13 -127 -10 -10
83 -7 -100 -19 -4 73 -80 85
-26 101 -59 -94 -35 94 16 -99
-3 -127 -77 -106 -95 80 39 127
-39 64 -58 127 -84 86 74 36
10 113 67 81 53 -110 103 37
0 -127 12 -88 -86 -87 -59 81
-48 -6 34 -107 -127 -60 116 -48
-74 -11 23 -62 106 42 -17 -33
-60 127 -79 -5 -14 37 127 50
-36 35 -26 -95 76 127 41 -56
-94 -50 14 -55 64 98 89 -16
83 -21 -89 -44 14 118 40 113
127 -80 -120 -12 35 -76 12 66
30 -113 100 -92 -89 118 -51 -127
8 9 113 21 -10 -29 55 -6
-23 59 -8 18 127 -40 -114 125
75 18 -127 -98 -72 127 -24 15
-92 -36 26 70 24 10 127 -1
-123 -17 -90 -57 126 127 127 23
-94 -127 88 -114 58 120 -100 12
00000000: 37d2 286f 8132 c5c7 5cc6 2281 fe03 c860
00000010: 6152 1b1a 53ef bb48 b68c dc4b 17eb f567
00000020: ec21 4f24 7a0e 1281 7f72 eb72 50a9 1cde
00000030: ecec 82dd dc42 0095 35b5 8615 42ff f35d
00000040: df99 7262 c29a dd91 880e f35d d896 461c
00000050: 7fc6 c506 aa73 c44f 6c03 c898 f381 f6f6
00000060: 53f9 9ced fc49 b055 e665 c5a2 dd5e 109d
00000070: fd81 b396 a150 277f d940 c67f ac56 4a24
00000080: 0a71 4351 3592 6725 0081 0ca8 aaa9 c551
00000090: d0fa 2295 81c4 74d0 b6f5 17c2 6a2a efdf
000000a0: c47f b1fb f225 7f32 dc23 e6a1 4c7f 29c8
000000b0: a2ce 0ec9 4062 59f0 53eb a7d4 0e76 2871
000000c0: 7fb0 88f4 23b4 0c42 1e8f 64a4 a776 cd81
000000d0: 0809 7115 f6e3 37fa e93b f812 7fd8 8e7d
000000e0: 4b12 819e b87f e80f a4dc 1a46 180a 7fff
000000f0: 85ef a6c7 7e7f 7f17 a281 588e 3a78 9c0c

tfl.pseudo_qconst17 i1 [1, 7, 1, 32]
-50 42 -103 8 47 -112 -127 35
52 1 34 -113 -127 -127 34 69
-46 -86 127 -103 22 -100 -39 -55
31 75 39 -113 -21 -115 -107 30
54 -107 101 98 -127 -124 52 -40
-127 -113 92 -17 -43 24 32 6
-107 -66 -75 -89 -127 -9 -112 -24
45 44 -126 -127 -127 -67 115 126
-36 -127 -53 -55 -41 -99 -88 102
-9 -66 -116 -68 -92 -67 127 -102
104 11 36 -54 104 82 18 101
63 102 -127 31 -50 -127 -113 44
-127 51 -127 -2 -55 -82 29 -80
20 -17 12 -127 2 32 0 30
127 -93 93 -76 -30 -47 -63 127
52 126 -6 44 -59 70 112 99
5 -76 -1 -127 -123 8 97 -127
55 127 -127 72 83 -34 108 51
44 -127 -43 -58 -108 -76 -127 -16
20 118 50 -53 -83 -22 127 127
21 -1 -12 -43 105 -127 117 75
68 -111 -93 -107 -88 -93 10 -12
-66 -53 -81 127 -81 -125 101 -125
-42 18 33 -123 -20 -55 -5 90
-42 -50 -80 121 -17 -36 92 35
5 13 25 42 108 -99 120 -127
-92 -93 91 -16 13 127 78 -29
-127 127 -4 -4 123 87 19 -86
00000000: ce2a 9908 2f90 8123 3401 228f 8181 2245
00000010: d2aa 7f99 169c d9c9 1f4b 278f eb8d 951e
00000020: 3695 6562 8184 34d8 818f 5cef d518 2006
00000030: 95be b5a7 81f7 90e8 2d2c 8281 81bd 737e
00000040: dc81 cbc9 d79d a866 f7be 8cbc a4bd 7f9a
00000050: 680b 24ca 6852 1265 3f66 811f ce81 8f2c
00000060: 8133 81fe c9ae 1db0 14ef 0c81 0220 001e
00000070: 7fa3 5db4 e2d1 c17f 347e fa2c c546 7063
00000080: 05b4 ff81 8508 6181 377f 8148 53de 6c33
00000090: 2c81 d5c6 94b4 81f0 1476 32cb adea 7f7f
000000a0: 15ff f4d5 6981 754b 4491 a395 a8a3 0af4
000000b0: becb af7f af83 6583 d612 2185 ecc9 fb5a
000000c0: d6ce b079 efdc 5c23 050d 192a 6c9d 7881
000000d0: a4a3 5bf0 0d7f 4ee3 817f fcfc 7b57 13aa

tfl.pseudo_qconst19 i1 [64, 1, 1, 32]
-63 111 -53 127 -53 105 68 -97
-99 85 16 -2 -127 -79 48 83
7 86 -54 -34 -80 -61 -22 -118
-45 -124 47 22 -16 -99 -103 37
-102 100 29 70 -114 -71 -25 -80
39 18 -8 -24 23 -87 -58 46
64 -13 19 14 -127 102 -66 126
-27 21 87 -107 102 0 9 11
12 -101 -120 125 127 -86 -109 35
-41 -54 -14 115 41 -58 12 -18
62 105 -43 94 -122 -29 61 -71
-83 -42 -71 56 95 -40 85 -126
6 64 -103 -125 4 57 -116 41
49 37 50 -78 -61 -98 70 -101
99 -56 127 -99 58 -109 -61 79
-86 108 -36 -8 -19 -78 43 13
100 19 -85 79 -127 4 106 8
-71 -105 -68 41 16 14 -74 -112
5 7 120 89 63 -84 -39 -121
6 67 86 97 55 -61 -77 -108
127 108 -45 -83 -91 69 80 65
78 -56 -56 -22 -36 -16 -95 -55
89 77 33 49 84 85 51 -94
102 51 -43 -43 -1 47 67 -85
35 12 26 93 -32 -28 -98 73
113 -12 -99 -114 -114 18 -127 56
-28 -28 -102 61 -104 -53 1 2
-2 98 73 -66 -67 21 -57 124
30 73 116 94 -2 -68 127 100
-93 58 -21 8 89 -100 -45 37
-70 109 83 59 95 79 39 -109
15 -60 -92 60 -32 64 124 -77
00000000: c16f cb7f cb69 449f 9d55 10fe 81b1 3053
00000010: 0756 cade b0c3 ea8a d384 2f16 f09d 9925
00000020: 9a64 1d46 8eb9 e7b0 2712 f8e8 17a9 c62e
00000030: 40f3 130e 8166 be7e e515 5795 6600 090b
00000040: 0c9b 887d 7faa 9323 d7ca f273 29c6 0cee
00000050: 3e69 d55e 86e3 3db9 add6 b938 5fd8 5582
00000060: 0640 9983 0439 8c29 3125 32b2 c39e 469b
00000070: 63c8 7f9d 3a93 c34f aa6c dcf8 edb2 2b0d
00000080: 6413 ab4f 8104 6a08 b997 bc29 100e b690
00000090: 0507 7859 3fac d987 0643 5661 37c3 b394
000000a0: 7f6c d3ad a545 5041 4ec8 c8ea dcf0 a1c9
000000b0: 594d 2131 5455 33a2 6633 d5d5 ff2f 43ab
000000c0: 230c 1a5d e0e4 9e49 71f4 9d8e 8e12 8138
000000d0: e4e4 9a3d 98cb 0102 fe62 49be bd15 c77c
000000e0: 1e49 745e febc 7f64 a33a eb08 599c d325
000000f0: ba6d 533b 5f4f 2793 0fc4 a43c e040 7cb3

tfl.pseudo_qconst21 i1 [1, 5, 1, 32]
119 100 -114 -26 -71 -85 -111 -125
-62 -127 -94 21 91 35 -58 2
127 127 71 114 39 93 -126 -82
127 24 -29 6 -110 127 124 -47
127 -127 5 23 -127 -10 -91 -127
127 34 -107 -127 -47 22 22 7
-110 -7 -112 -98 47 -5 88 -92
123 68 1 -46 -127 47 -94 -87
60 -64 37 127 -28 -16 79 -78
39 -38 -4 113 -127 58 -127 -4
48 -31 -127 74 25 -103 -113 -27
30 -107 127 10 8 20 127 -127
-65 90 -127 -12 62 127 97 -44
0 -110 -126 -125 -29 -98 16 76
-64 24 -35 -86 -20 -127 -127 -127
114 127 -27 127 -75 -66 15 10
12 -68 59 116 5 1 127 -113
30 -72 -127 -8 1 -127 -81 -127
-113 109 14 127 127 99 -21 -126
-119 111 29 67 -30 51 -76 11
00000000: 7764 8ee6 b9ab 9183 c281 a215 5b23 c602
00000010: 7f7f 4772 275d 82ae 7f18 e306 927f 7cd1
00000020: 7f81 0517 81f6 a581 7f22 9581 d116 1607
00000030: 92f9 909e 2ffb 58a4 7b44 01d2 812f a2a9
00000040: 3cc0 257f e4f0 4fb2 27da fc71 813a 81fc
00000050: 30e1 814a 1999 8fe5 1e95 7f0a 0814 7f81
00000060: bf5a 81f4 3e7f 61d4 0092 8283 e39e 104c
00000070: c018 ddaa ec81 8181 727f e57f b5be 0f0a
00000080: 0cbc 3b74 0501 7f8f 1eb8 81f8 0181 af81
00000090: 8f6d 0e7f 7f63 eb82 896f 1d43 e233 b40b

tfl.pseudo_qconst23 i1 [32, 5, 1, 40]
99 110 80 -61 -31 -46 -97 -113
70 20 -97 -74 84 -71 20 -26
-66 72 73 52 37 -4 -94 -57
-85 -84 122 -110 -28 -60 38 -20
-36 79 95 -1 97 -83 73 112
18 108 9 -52 96 -55 -101 -114
-104 -18 -119 40 68 47 -106 -74
-116 -63 -127 -64 82 -23 103 6
-44 40 110 -10 -50 -41 45 57
70 74 -82 29 79 26 -94 -42
30 109 76 23 -112 13 -106 -122
-65 -93 116 96 -122 -103 5 -112
73 -2 -93 -25 31 15 97 -95
84 -10 116 116 75 -89 -7 -13
-78 60 -34 83 62 -82 65 -49
-28 -79 45 14 93 95 -89 -40
-68 -52 44 -78 57 -31 17 71
-25 63 39 31 90 -42 -10 14
0 114 44 16 104 -64 -53 90
30 84 89 -51 40 -36 104 -23
7 -65 42 64 67 114 -68 -58
-67 25 27 80 -2 98 8 -88
64 -104 19 -110 -102 35 46 -51
-102 -36 -96 30 -112 -83 -74 -99
31 -108 -92 -112 -46 -4 69 -74
45 -51 49 57 -33 86 -84 -99
-35 64 57 -87 27 50 24 43
88 -113 28 32 77 108 -15 -115
-71 105 70 -50 54 14 -103 93
26 -7 -80 -92 49 31 -14 -4
-104 -13 39 53 11 -119 38 108
91 99 -116 54 -14 56 4 70
00000000: 636e 50c3 e1d2 9f8f 4614 9fb6 54b9 14e6
00000010: be48 4934 25fc a2c7 abac 7a92 e4c4 26ec
00000020: dc4f 5fff 61ad 4970 126c 09cc 60c9 9b8e
00000030: 98ee 8928 442f 96b6 8cc1 81c0 52e9 6706
00000040: d428 6ef6 ced7 2d39 464a ae1d 4f1a a2d6
00000050: 1e6d 4c17 900d 9686 bfa3 7460 8699 0590
00000060: 49fe a3e7 1f0f 61a1 54f6 7474 4ba7 f9f3
00000070: b23c de53 3eae 41cf e4b1 2d0e 5d5f a7d8
00000080: bccc 2cb2 39e1 1147 e73f 271f 5ad6 f60e
00000090: 0072 2c10 68c0 cb5a 1e54 59cd 28dc 68e9
000000a0: 07bf 2a40 4372 bcc6 bd19 1b50 fe62 08a8
000000b0: 4098 1392 9a23 2ecd 9adc a01e 90ad b69d
000000c0: 1f94 a490 d2fc 45b6 2dcd 3139 df56 ac9d
000000d0: dd40 39a9 1b32 182b 588f 1c20 4d6c f18d
000000e0: b969 46ce 360e 995d 1af9 b0a4 311f f2fc
000000f0: 98f3 2735 0b89 266c 5b63 8c36 f238 0446

tfl.pseudo_qconst24 i1 [1, 22, 1, 64] scale=0.02825519 zero_point=-128
0.0 0.0 0.0 0.0 0.0 0.0 0.0 0.0
0.0 0.0 0.0 0.0 0.0 0.0 0.0 0.0
0.0 0.0 0.0 0.0 0.0 0.0 0.0 0.0
0.0 0.0 0.0 0.0 0.0 0.0 0.0 0.0
0.0 0.0 0.0 0.0 0.0 0.0 0.0 0.0
0.0 0.0 0.0 0.0 0.0 0.0 0.0 0.0
0.0 0.0 0.0 0.0 0.0 0.0 0.0 0.0
0.0 0.0 0.0 0.0 0.0 0.0 0.0 0.0
0.0 0.0 0.0 0.0 0.0 0.0 0.0 0.0
0.0 0.0 0.0 0.0 0.0 0.0 0.0 0.0
0.0 0.0 0.0 0.0 0.0 0.0 0.0 0.0
0.0 0.0 0.0 0.0 0.0 0.0 0.0 0.0
0.0 0.0 0.0 0.0 0.0 0.0 0.0 0.0
0.0 0.0 0.0 0.0 0.0 0.0 0.0 0.0
0.0 0.0 0.0 0.0 0.0 0.0 0.0 0.0
0.0 0.0 0.0 0.0 0.0 0.0 0.0 0.0
0.0 0.0 0.0 0.0 0.0 0.0 0.0 0.0
0.0 0.0 0.0 0.0 0.0 0.0 0.0 0.0
0.0 0.0 0.0 0.0 0.0 0.0 0.0 0.0
0.0 0.0 0.0 0.0 0.0 0.0 0.0 0.0
0.0 0.0 0.0 0.0 0.0 0.0 0.0 0.0
0.0 0.0 0.0 0.0 0.0 0.0 0.0 0.0
0.0 0.0 0.0 0.0 0.0 0.0 0.0 0.0
0.0 0.0 0.0 0.0 0.0 0.0 0.0 0.0
0.0 0.0 0.0 0.0 0.0 0.0 0.0 0.0
0.0 0.0 0.0 0.0 0.0 0.0 0.0 0.0
0.0 0.0 0.0 0.0 0.0 0.0 0.0 0.0
0.0 0.0 0.0 0.0 0.0 0.0 0.0 0.0
0.0 0.0 0.0 0.0 0.0 0.0 0.0 0.0
0.0 0.0 0.0 0.0 0.0 0.0 0.0 0.0
0.0 0.0 0.0 0.0 0.0 0.0 0.0 0.0
0.0 0.0 0.0 0.0 0.0 0.0 0.0 0.0
00000000: 8080 8080 8080 8080 8080 8080 8080 8080
00000010: 8080 8080 8080 8080 8080 8080 8080 8080
00000020: 8080 8080 8080 8080 8080 8080 8080 8080
00000030: 8080 8080 8080 8080 8080 8080 8080 8080
00000040: 8080 8080 8080 8080 8080 8080 8080 8080
00000050: 8080 8080 8080 8080 8080 8080 8080 8080
00000060: 8080 8080 8080 8080 8080 8080 8080 8080
00000070: 8080 8080 8080 8080 8080 8080 8080 8080
00000080: 8080 8080 8080 8080 8080 8080 8080 8080
00000090: 8080 8080 8080 8080 8080 8080 8080 8080
000000a0: 8080 8080 8080 8080 8080 8080 8080 8080
000000b0: 8080 8080 8080 8080 8080 8080 8080 8080
000000c0: 8080 8080 8080 8080 8080 8080 8080 8080
000000d0: 8080 8080 8080 8080 8080 8080 8080 8080
000000e0: 8080 8080 8080 8080 8080 8080 8080 8080
000000f0: 8080 8080 8080 8080 8080 8080 8080 8080

tfl.pseudo_qconst25 i1 [1, 16, 1, 64] scale=0.028237006 zero_point=-128
0.0 0.0 0.0 0.0 0.0 0.0 0.0 0.0
0.0 0.0 0.0 0.0 0.0 0.0 0.0 0.0
0.0 0.0 0.0 0.0 0.0 0.0 0.0 0.0
0.0 0.0 0.0 0.0 0.0 0.0 0.0 0.0
0.0 0.0 0.0 0.0 0.0 0.0 0.0 0.0
0.0 0.0 0.0 0.0 0.0 0.0 0.0 0.0
0.0 0.0 0.0 0.0 0.0 0.0 0.0 0.0
0.0 0.0 0.0 0.0 0.0 0.0 0.0 0.0
0.0 0.0 0.0 0.0 0.0 0.0 0.0 0.0
0.0 0.0 0.0 0.0 0.0 0.0 0.0 0.0
0.0 0.0 0.0 0.0 0.0 0.0 0.0 0.0
0.0 0.0 0.0 0.0 0.0 0.0 0.0 0.0
0.0 0.0 0.0 0.0 0.0 0.0 0.0 0.0
0.0 0.0 0.0 0.0 0.0 0.0 0.0 0.0
0.0 0.0 0.0 0.0 0.0 0.0 0.0 0.0
0.0 0.0 0.0 0.0 0.0 0.0 0.0 0.0
0.0 0.0 0.0 0.0 0.0 0.0 0.0 0.0
0.0 0.0 0.0 0.0 0.0 0.0 0.0 0.0
0.0 0.0 0.0 0.0 0.0 0.0 0.0 0.0
0.0 0.0 0.0 0.0 0.0 0.0 0.0 0.0
0.0 0.0 0.0 0.0 0.0 0.0 0.0 0.0
0.0 0.0 0.0 0.0 0.0 0.0 0.0 0.0
0.0 0.0 0.0 0.0 0.0 0.0 0.0 0.0
0.0 0.0 0.0 0.0 0.0 0.0 0.0 0.0
0.0 0.0 0.0 0.0 0.0 0.0 0.0 0.0
0.0 0.0 0.0 0.0 0.0 0.0 0.0 0.0
0.0 0.0 0.0 0.0 0.0 0.0 0.0 0.0
0.0 0.0 0.0 0.0 0.0 0.0 0.0 0.0
0.0 0.0 0.0 0.0 0.0 0.0 0.0 0.0
0.0 0.0 0.0 0.0 0.0 0.0 0.0 0.0
0.0 0.0 0.0 0.0 0.0 0.0 0.0 0.0
0.0 0.0 0.0 0.0 0.0 0.0 0.0 0.0
00000000: 8080 8080 8080 8080 8080 8080 8080 8080
00000010: 8080 8080 8080 8080 8080 8080 8080 8080
00000020: 8080 8080 8080 8080 8080 8080 8080 8080
00000030: 8080 8080 8080 8080 8080 8080 8080 8080
00000040: 8080 8080 8080 8080 8080 8080 8080 8080
00000050: 8080 8080 8080 8080 8080 8080 8080 8080
00000060: 8080 8080 8080 8080 8080 8080 8080 8080
00000070: 8080 8080 8080 8080 8080 8080 8080 8080
00000080: 8080 8080 8080 8080 8080 8080 8080 8080
00000090: 8080 8080 8080 8080 8080 8080 8080 8080
000000a0: 8080 8080 8080 8080 8080 8080 8080 8080
000000b0: 8080 8080 8080 8080 8080 8080 8080 8080
000000c0: 8080 8080 8080 8080 8080 8080 8080 8080
000000d0: 8080 8080 8080 8080 8080 8080 8080 8080
000000e0: 8080 8080 8080 8080 8080 8080 8080 8080
000000f0: 8080 8080 8080 8080 8080 8080 8080 8080

tfl.pseudo_qconst26 i1 [1, 2, 1, 40] scale=0.101960786 zero_point=-128
0.0 0.0 0.0 0.0 0.0 0.0 0.0 0.0
0.0 0.0 0.0 0.0 0.0 0.0 0.0 0.0
0.0 0.0 0.0 0.0 0.0 0.0 0.0 0.0
0.0 0.0 0.0 0.0 0.0 0.0 0.0 0.0
0.0 0.0 0.0 0.0 0.0 0.0 0.0 0.0
0.0 0.0 0.0 0.0 0.0 0.0 0.0 0.0
0.0 0.0 0.0 0.0 0.0 0.0 0.0 0.0
0.0 0.0 0.0 0.0 0.0 0.0 0.0 0.0
0.0 0.0 0.0 0.0 0.0 0.0 0.0 0.0
0.0 0.0 0.0 0.0 0.0 0.0 0.0 0.0
00000000: 8080 8080 8080 8080 8080 8080 8080 8080
00000010: 8080 8080 8080 8080 8080 8080 8080 8080
00000020: 8080 8080 8080 8080 8080 8080 8080 8080
00000030: 8080 8080 8080 8080 8080 8080 8080 8080
00000040: 8080 8080 8080 8080 8080 8080 8080 8080

tfl.pseudo_qconst27 i1 [1, 4, 1, 32] scale=0.19356099 zero_point=-128
0.0 0.0 0.0 0.0 0.0 0.0 0.0 0.0
0.0 0.0 0.0 0.0 0.0 0.0 0.0 0.0
0.0 0.0 0.0 0.0 0.0 0.0 0.0 0.0
0.0 0.0 0.0 0.0 0.0 0.0 0.0 0.0
0.0 0.0 0.0 0.0 0.0 0.0 0.0 0.0
0.0 0.0 0.0 0.0 0.0 0.0 0.0 0.0
0.0 0.0 0.0 0.0 0.0 0.0 0.0 0.0
0.0 0.0 0.0 0.0 0.0 0.0 0.0 0.0
0.0 0.0 0.0 0.0 0.0 0.0 0.0 0.0
0.0 0.0 0.0 0.0 0.0 0.0 0.0 0.0
0.0 0.0 0.0 0.0 0.0 0.0 0.0 0.0
0.0 0.0 0.0 0.0 0.0 0.0 0.0 0.0
0.0 0.0 0.0 0.0 0.0 0.0 0.0 0.0
0.0 0.0 0.0 0.0 0.0 0.0 0.0 0.0
0.0 0.0 0.0 0.0 0.0 0.0 0.0 0.0
0.0 0.0 0.0 0.0 0.0 0.0 0.0 0.0
00000000: 8080 8080 8080 8080 8080 8080 8080 8080
00000010: 8080 8080 8080 8080 8080 8080 8080 8080
00000020: 8080 8080 8080 8080 8080 8080 8080 8080
00000030: 8080 8080 8080 8080 8080 8080 8080 8080
00000040: 8080 8080 8080 8080 8080 8080 8080 8080
00000050: 8080 8080 8080 8080 8080 8080 8080 8080
00000060: 8080 8080 8080 8080 8080 8080 8080 8080
00000070: 8080 8080 8080 8080 8080 8080 8080 8080

tfl.pseudo_qconst28 i1 [1, 10, 1, 64] scale=0.026914954 zero_point=-128
0.0 0.0 0.0 0.0 0.0 0.0 0.0 0.0
0.0 0.0 0.0 0.0 0.0 0.0 0.0 0.0
0.0 0.0 0.0 0.0 0.0 0.0 0.0 0.0
0.0 0.0 0.0 0.0 0.0 0.0 0.0 0.0
0.0 0.0 0.0 0.0 0.0 0.0 0.0 0.0
0.0 0.0 0.0 0.0 0.0 0.0 0.0 0.0
0.0 0.0 0.0 0.0 0.0 0.0 0.0 0.0
0.0 0.0 0.0 0.0 0.0 0.0 0.0 0.0
0.0 0.0 0.0 0.0 0.0 0.0 0.0 0.0
0.0 0.0 0.0 0.0 0.0 0.0 0.0 0.0
0.0 0.0 0.0 0.0 0.0 0.0 0.0 0.0
0.0 0.0 0.0 0.0 0.0 0.0 0.0 0.0
0.0 0.0 0.0 0.0 0.0 0.0 0.0 0.0
0.0 0.0 0.0 0.0 0.0 0.0 0.0 0.0
0.0 0.0 0.0 0.0 0.0 0.0 0.0 0.0
0.0 0.0 0.0 0.0 0.0 0.0 0.0 0.0
0.0 0.0 0.0 0.0 0.0 0.0 0.0 0.0
0.0 0.0 0.0 0.0 0.0 0.0 0.0 0.0
0.0 0.0 0.0 0.0 0.0 0.0 0.0 0.0
0.0 0.0 0.0 0.0 0.0 0.0 0.0 0.0
0.0 0.0 0.0 0.0 0.0 0.0 0.0 0.0
0.0 0.0 0.0 0.0 0.0 0.0 0.0 0.0
0.0 0.0 0.0 0.0 0.0 0.0 0.0 0.0
0.0 0.0 0.0 0.0 0.0 0.0 0.0 0.0
0.0 0.0 0.0 0.0 0.0 0.0 0.0 0.0
0.0 0.0 0.0 0.0 0.0 0.0 0.0 0.0
0.0 0.0 0.0 0.0 0.0 0.0 0.0 0.0
0.0 0.0 0.0 0.0 0.0 0.0 0.0 0.0
0.0 0.0 0.0 0.0 0.0 0.0 0.0 0.0
0.0 0.0 0.0 0.0 0.0 0.0 0.0 0.0
0.0 0.0 0.0 0.0 0.0 0.0 0.0 0.0
0.0 0.0 0.0 0.0 0.0 0.0 0.0 0.0
00000000: 8080 8080 8080 8080 8080 8080 8080 8080
00000010: 8080 8080 8080 8080 8080 8080 8080 8080
00000020: 8080 8080 8080 8080 8080 8080 8080 8080
00000030: 8080 8080 8080 8080 8080 8080 8080 8080
00000040: 8080 8080 8080 8080 8080 8080 8080 8080
00000050: 8080 8080 8080 8080 8080 8080 8080 8080
00000060: 8080 8080 8080 8080 8080 8080 8080 8080
00000070: 8080 8080 8080 8080 8080 8080 8080 8080
00000080: 8080 8080 8080 8080 8080 8080 8080 8080
00000090: 8080 8080 8080 8080 8080 8080 8080 8080
000000a0: 8080 8080 8080 8080 8080 8080 8080 8080
000000b0: 8080 8080 8080 8080 8080 8080 8080 8080
000000c0: 8080 8080 8080 8080 8080 8080 8080 8080
000000d0: 8080 8080 8080 8080 8080 8080 8080 8080
000000e0: 8080 8080 8080 8080 8080 8080 8080 8080
000000f0: 8080 8080 8080 8080 8080 8080 8080 8080

tfl.pseudo_qconst29 i1 [1, 14, 1, 64] scale=0.031616848 zero_point=-128
0.0 0.0 0.0 0.0 0.0 0.0 0.0 0.0
0.0 0.0 0.0 0.0 0.0 0.0 0.0 0.0
0.0 0.0 0.0 0.0 0.0 0.0 0.0 0.0
0.0 0.0 0.0 0.0 0.0 0.0 0.0 0.0
0.0 0.0 0.0 0.0 0.0 0.0 0.0 0.0
0.0 0.0 0.0 0.0 0.0 0.0 0.0 0.0
0.0 0.0 0.0 0.0 0.0 0.0 0.0 0.0
0.0 0.0 0.0 0.0 0.0 0.0 0.0 0.0
0.0 0.0 0.0 0.0 0.0 0.0 0.0 0.0
0.0 0.0 0.0 0.0 0.0 0.0 0.0 0.0
0.0 0.0 0.0 0.0 0.0 0.0 0.0 0.0
0.0 0.0 0.0 0.0 0.0 0.0 0.0 0.0
0.0 0.0 0.0 0.0 0.0 0.0 0.0 0.0
0.0 0.0 0.0 0.0 0.0 0.0 0.0 0.0
0.0 0.0 0.0 0.0 0.0 0.0 0.0 0.0
0.0 0.0 0.0 0.0 0.0 0.0 0.0 0.0
0.0 0.0 0.0 0.0 0.0 0.0 0.0 0.0
0.0 0.0 0.0 0.0 0.0 0.0 0.0 0.0
0.0 0.0 0.0 0.0 0.0 0.0 0.0 0.0
0.0 0.0 0.0 0.0 0.0 0.0 0.0 0.0
0.0 0.0 0.0 0.0 0.0 0.0 0.0 0.0
0.0 0.0 0.0 0.0 0.0 0.0 0.0 0.0
0.0 0.0 0.0 0.0 0.0 0.0 0.0 0.0
0.0 0.0 0.0 0.0 0.0 0.0 0.0 0.0
0.0 0.0 0.0 0.0 0.0 0.0 0.0 0.0
0.0 0.0 0.0 0.0 0.0 0.0 0.0 0.0
0.0 0.0 0.0 0.0 0.0 0.0 0.0 0.0
0.0 0.0 0.0 0.0 0.0 0.0 0.0 0.0
0.0 0.0 0.0 0.0 0.0 0.0 0.0 0.0
0.0 0.0 0.0 0.0 0.0 0.0 0.0 0.0
0.0 0.0 0.0 0.0 0.0 0.0 0.0 0.0
0.0 0.0 0.0 0.0 0.0 0.0 0.0 0.0
00000000: 8080 8080 8080 8080 8080 8080 8080 8080
00000010: 8080 8080 8080 8080 8080 8080 8080 8080
00000020: 8080 8080 8080 8080 8080 8080 8080 8080
00000030: 8080 8080 8080 8080 8080 8080 8080 8080
00000040: 8080 8080 8080 8080 8080 8080 8080 8080
00000050: 8080 8080 8080 8080 8080 8080 8080 8080
00000060: 8080 8080 8080 8080 8080 8080 8080 8080
00000070: 8080 8080 8080 8080 8080 8080 8080 8080
00000080: 8080 8080 8080 8080 8080 8080 8080 8080
00000090: 8080 8080 8080 8080 8080 8080 8080 8080
000000a0: 8080 8080 8080 8080 8080 8080 8080 8080
000000b0: 8080 8080 8080 8080 8080 8080 8080 8080
000000c0: 8080 8080 8080 8080 8080 8080 8080 8080
000000d0: 8080 8080 8080 8080 8080 8080 8080 8080
000000e0: 8080 8080 8080 8080 8080 8080 8080 8080
000000f0: 8080 8080 8080 8080 8080 8080 8080 8080
